…
ls': 3, 'train_dir': 'F:\\Lab\\datasets\\UFPR-Periocular\\UFPR-Periocular', 'eval_dir': 'F:\\Lab\\datasets\\UFPR-Periocular\\UFPR-Periocular', 'labels': 'F:\\Lab\\datasets\\UFPR-Periocular\\UFPR-Periocular\\experimentalProtocol\\open_world_valopen', 'randaugment': True, 'randaugment_layers': 2, 'randaugment_magnitude': 12}}
Number of devices: 2
Model: "sequential"
_________________________________________________________________
Layer (type)                 Output Shape              Param #   
=================================================================
efficientnetb4 (Functional)  (None, 8, 16, 1792)       17673823  
_________________________________________________________________
global_average_pooling2d (Gl (None, 1792)              0         
_________________________________________________________________
dense (Dense)                (None, 1024)              1836032   
_________________________________________________________________
batch_normalization (BatchNo (None, 1024)              4096      
_________________________________________________________________
dropout (Dropout)            (None, 1024)              0         
_________________________________________________________________
activation (Activation)      (None, 1024)              0         
_________________________________________________________________
dense_1 (Dense)              (None, 1)                 1025      
=================================================================
Total params: 19,514,976
Trainable params: 1,839,105
Non-trainable params: 17,675,871
_________________________________________________________________
Model: "sequential"
_________________________________________________________________
Layer (type)                 Output Shape              Param #   
=================================================================
efficientnetb4 (Functional)  (None, 8, 16, 1792)       17673823  
_________________________________________________________________
global_average_pooling2d (Gl (None, 1792)              0         
_________________________________________________________________
dense (Dense)                (None, 1024)              1836032   
_________________________________________________________________
batch_normalization (BatchNo (None, 1024)              4096      
_________________________________________________________________
dropout (Dropout)            (None, 1024)              0         
_________________________________________________________________
activation (Activation)      (None, 1024)              0         
_________________________________________________________________
dense_1 (Dense)              (None, 1)                 1025      
=================================================================
Total params: 19,514,976
Trainable params: 19,387,721
Non-trainable params: 127,255
_________________________________________________________________
Loading weights : F:\Lab\nfs\base\checkpoints\EfficientNetB4_UFPR_aligned_aug_gender_finetuned_F75M25.18-0.2005.hdf5
F:\Lab\datasets\UFPR-Periocular\UFPR-Periocular\experimentalProtocol\open_world_valopen\train_fold1*
…
