…
'image_height': 256, 'image_width': 256, 'channels': 3, 'train_dir': 'F:\\Lab\\datasets\\fairface\\fairface-img-margin025-trainval', 'eval_dir': 'F:\\Lab\\datasets\\fairface\\fairface-img-margin025-trainval', 'labels': 'F:\\Lab\\datasets\\fairface', 'randaugment': True, 'randaugment_layers': 2, 'randaugment_magnitude': 8}}
Number of devices: 1
Model: "sequential"
_________________________________________________________________
 Layer (type)                Output Shape              Param #   
=================================================================
 efficientnetb4 (Functional)  (None, 8, 8, 1792)       17673823  
                                                                 
 global_average_pooling2d (G  (None, 1792)             0         
 lobalAveragePooling2D)                                          
                                                                 
 dense (Dense)               (None, 1024)              1836032   
                                                                 
 batch_normalization (BatchN  (None, 1024)             4096      
 ormalization)                                                   
                                                                 
 dropout (Dropout)           (None, 1024)              0         
                                                                 
 activation (Activation)     (None, 1024)              0         
                                                                 
 dense_1 (Dense)             (None, 2)                 2050      
                                                                 
=================================================================
Total params: 19,516,001
Trainable params: 1,840,130
Non-trainable params: 17,675,871
_________________________________________________________________
Loading weights : F:\Lab\nfs\base-fairface\checkpoints\EfficientNetB4_fairface_cropped_aug_gender_base_F50M50.hdf5
Model: "sequential"
_________________________________________________________________
 Layer (type)                Output Shape              Param #   
=================================================================
 efficientnetb4 (Functional)  (None, 8, 8, 1792)       17673823  
                                                                 
 global_average_pooling2d (G  (None, 1792)             0         
 lobalAveragePooling2D)                                          
                                                                 
 dense (Dense)               (None, 1024)              1836032   
                                                                 
 batch_normalization (BatchN  (None, 1024)             4096      
 ormalization)                                                   
                                                                 
 dropout (Dropout)           (None, 1024)              0         
                                                                 
 activation (Activation)     (None, 1024)              0         
                                                                 
 dense_1 (Dense)             (None, 2)                 2050      
                                                                 
=================================================================
Total params: 19,516,001
Trainable params: 19,388,746
Non-trainable params: 127,255
_________________________________________________________________
b'F:\\Lab\\datasets\\fairface\\fairface-img-margin025-trainval\\train/18991.jpg' 1
b'F:\\Lab\\datasets\\fairface\\fairface-img-margin025-trainval\\train/76422.jpg' 1
…
