…
}, 'input': {'type': 'band', 'image_height': 224, 'image_width': 224, 'channels': 3, 'train_dir': 'F:\\Lab\\nfs\\notredame\\nir-data-face', 'eval_dir': 'F:\\Lab\\nfs\\notredame\\nir-data-face', 'labels': 'F:\\Lab\\nfs\\base-notredame\\nir_labels_', 'randaugment': True, 'randaugment_layers': 2, 'randaugment_magnitude': 12}}
Number of devices: 1
Model: "sequential"
_________________________________________________________________
 Layer (type)                Output Shape              Param #   
=================================================================
 efficientnetb4 (Functional)  (None, 7, 7, 1792)       17673823  
                                                                 
 global_average_pooling2d (G  (None, 1792)             0         
 lobalAveragePooling2D)                                          
                                                                 
 dense (Dense)               (None, 1024)              1836032   
                                                                 
 batch_normalization (BatchN  (None, 1024)             4096      
 ormalization)                                                   
                                                                 
 dropout (Dropout)           (None, 1024)              0         
                                                                 
 activation (Activation)     (None, 1024)              0         
                                                                 
 dense_1 (Dense)             (None, 584)               598600    
                                                                 
=================================================================
Total params: 20,112,551
Trainable params: 2,436,680
Non-trainable params: 17,675,871
_________________________________________________________________
True
Model: "sequential"
_________________________________________________________________
 Layer (type)                Output Shape              Param #   
=================================================================
 efficientnetb4 (Functional)  (None, 7, 7, 1792)       17673823  
                                                                 
 global_average_pooling2d (G  (None, 1792)             0         
 lobalAveragePooling2D)                                          
                                                                 
 dense (Dense)               (None, 1024)              1836032   
                                                                 
 batch_normalization (BatchN  (None, 1024)             4096      
 ormalization)                                                   
                                                                 
 dropout (Dropout)           (None, 1024)              0         
                                                                 
 activation (Activation)     (None, 1024)              0         
                                                                 
 dense_1 (Dense)             (None, 584)               598600    
                                                                 
=================================================================
Total params: 20,112,551
Trainable params: 19,985,296
Non-trainable params: 127,255
_________________________________________________________________
Loading weights : F:\Lab\nfs\base-notredame\checkpoints\EfficientNetB4_Notredame_band_aug_subject_finetuned_F50M50.36-0.3015.hdf5
…
b'F:\\Lab\\nfs\\notredame\\nir-data-face\\06314d1316.png' 179
Image shape:  (224, 224, 3)
Label:  95
Train Size : 14280
Validation Size : 3570
Test Size : 1860
Model: "model"
_________________________________________________________________
 Layer (type)                Output Shape              Param #   
=================================================================
 efficientnetb4_input (Input  [(None, 224, 224, 3)]    0         
 Layer)                                                          
                                                                 
 efficientnetb4 (Functional)  (None, 7, 7, 1792)       17673823  
                                                                 
 global_average_pooling2d (G  (None, 1792)             0         
 lobalAveragePooling2D)                                          
                                                                 
 dense (Dense)               (None, 1024)              1836032   
                                                                 
 batch_normalization (BatchN  (None, 1024)             4096      
 ormalization)                                                   
                                                                 
 dropout (Dropout)           (None, 1024)              0         
                                                                 
 activation (Activation)     (None, 1024)              0         
                                                                 
=================================================================
Total params: 19,513,951
Trainable params: 19,386,696
Non-trainable params: 127,255
_________________________________________________________________
5000 5000 10000
DenseNet121_Notredame_band_aug_subject_finetuned_F50M50
F:\Lab\nfs\base-notredame\checkpoints\DenseNet121_Notredame_band_aug_subject_finetuned_F50M50.77-0.4387.hdf5
…
###7| 77/79 [01:14<00:01,  1.03it/s] 99%|#########8| 78/79 [01:15<00:00,  1.01it/s]100%|##########| 79/79 [01:18<00:00,  1.50s/it]100%|##########| 79/79 [01:18<00:00,  1.01it/s]2021-11-15 10:08:47.501820: I tensorflow/core/common_runtime/gpu/gpu_device.cc:1525] Created device /job:localhost/replica:0/task:0/device:GPU:0 with 22057 MB memory:  -> device: 0, name: Quadro RTX 6000, pci bus id: 0000:65:00.0, compute capability: 7.5

 (GlobalAveragePooling2D)                                        
                                                                 
 dense_2 (Dense)             (None, 1024)              1049600   
                                                                 
 batch_normalization_1 (Batc  (None, 1024)             4096      
 hNormalization)                                                 
                                                                 
 dropout_1 (Dropout)         (None, 1024)              0         
                                                                 
 activation_1 (Activation)   (None, 1024)              0         
                                                                 
 dense_3 (Dense)             (None, 584)               598600    
                                                                 
=================================================================
Total params: 8,689,800
Trainable params: 1,650,248
Non-trainable params: 7,039,552
_________________________________________________________________
True
Model: "sequential_1"
_________________________________________________________________
 Layer (type)                Output Shape              Param #   
=================================================================
 densenet121 (Functional)    (None, 7, 7, 1024)        7037504   
                                                                 
 global_average_pooling2d_1   (None, 1024)             0         
 (GlobalAveragePooling2D)                                        
                                                                 
 dense_2 (Dense)             (None, 1024)              1049600   
                                                                 
 batch_normalization_1 (Batc  (None, 1024)             4096      
 hNormalization)                                                 
                                                                 
 dropout_1 (Dropout)         (None, 1024)              0         
                                                                 
 activation_1 (Activation)   (None, 1024)              0         
                                                                 
 dense_3 (Dense)             (None, 584)               598600    
                                                                 
=================================================================
Total params: 8,689,800
Trainable params: 8,604,104
Non-trainable params: 85,696
_________________________________________________________________
Loading weights : F:\Lab\nfs\base-notredame\checkpoints\DenseNet121_Notredame_band_aug_subject_finetuned_F50M50.77-0.4387.hdf5
…
b'F:\\Lab\\nfs\\notredame\\nir-data-face\\06796d821.png' 386
Image shape:  (224, 224, 3)
Label:  398
Train Size : 14280
Validation Size : 3570
Test Size : 1860
Model: "model_1"
_________________________________________________________________
 Layer (type)                Output Shape              Param #   
=================================================================
 densenet121_input (InputLay  [(None, 224, 224, 3)]    0         
 er)                                                             
                                                                 
 densenet121 (Functional)    (None, 7, 7, 1024)        7037504   
                                                                 
 global_average_pooling2d_1   (None, 1024)             0         
 (GlobalAveragePooling2D)                                        
                                                                 
 dense_2 (Dense)             (None, 1024)              1049600   
                                                                 
 batch_normalization_1 (Batc  (None, 1024)             4096      
 hNormalization)                                                 
                                                                 
 dropout_1 (Dropout)         (None, 1024)              0         
                                                                 
 activation_1 (Activation)   (None, 1024)              0         
                                                                 
=================================================================
Total params: 8,091,200
Trainable params: 8,005,504
Non-trainable params: 85,696
_________________________________________________________________
5000 5000 10000
MobileNetV2_Notredame_band_aug_subject_finetuned_F50M50
F:\Lab\nfs\base-notredame\checkpoints\MobileNetV2_Notredame_band_aug_subject_finetuned_F50M50.92-0.5260.hdf5
…
 'input': {'type': 'band', 'image_height': 224, 'image_width': 224, 'channels': 3, 'train_dir': 'F:\\Lab\\nfs\\notredame\\nir-data-face', 'eval_dir': 'F:\\Lab\\nfs\\notredame\\nir-data-face', 'labels': 'F:\\Lab\\nfs\\base-notredame\\nir_labels_', 'randaugment': True, 'randaugment_layers': 2, 'randaugment_magnitude': 12}}
Number of devices: 1
Model: "sequential_2"
_________________________________________________________________
 Layer (type)                Output Shape              Param #   
=================================================================
 mobilenetv2_1.00_224 (Funct  (None, 7, 7, 1280)       2257984   
 ional)                                                          
                                                                 
 global_average_pooling2d_2   (None, 1280)             0         
 (GlobalAveragePooling2D)                                        
                                                                 
 dense_4 (Dense)             (None, 1024)              1311744   
                                                                 
 batch_normalization_2 (Batc  (None, 1024)             4096      
 hNormalization)                                                 
                                                                 
 dropout_2 (Dropout)         (None, 1024)              0         
                                                                 
 activation_2 (Activation)   (None, 1024)              0         
                                                                 
 dense_5 (Dense)             (None, 584)               598600    
                                                                 
=================================================================
Total params: 4,172,424
Trainable params: 1,912,392
Non-trainable params: 2,260,032
_________________________________________________________________
True
Model: "sequential_2"
_________________________________________________________________
 Layer (type)                Output Shape              Param #   
=================================================================
 mobilenetv2_1.00_224 (Funct  (None, 7, 7, 1280)       2257984   
 ional)                                                          
                                                                 
 global_average_pooling2d_2   (None, 1280)             0         
 (GlobalAveragePooling2D)                                        
  0%|          | 0/79 [00:00<?, ?it/s]  1%|1         | 1/79 [00:01<02:15,  1.74s/it]  3%|2         | 2/79 [00:02<01:15,  1.02it/s]  4%|3         | 3/79 [00:02<00:55,  1.37it/s]  5%|5         | 4/79 [00:03<00:47,  1.57it/s]  6%|6         | 5/79 [00:03<00:43,  1.69it/s]  8%|7         | 6/79 [00:04<00:39,  1.83it/s]
…
97it/s] 96%|#########6| 76/79 [00:38<00:01,  2.00it/s] 97%|#########7| 77/79 [00:38<00:00,  2.00it/s] 99%|#########8| 78/79 [00:39<00:00,  2.01it/s]100%|##########| 79/79 [00:40<00:00,  1.48it/s]100%|##########| 79/79 [00:40<00:00,  1.97it/s]2021-11-15 10:09:49.165564: I tensorflow/core/common_runtime/gpu/gpu_device.cc:1525] Created device /job:localhost/replica:0/task:0/device:GPU:0 with 22057 MB memory:  -> device: 0, name: Quadro RTX 6000, pci bus id: 0000:65:00.0, compute capability: 7.5

                                                                 
 dense_4 (Dense)             (None, 1024)              1311744   
                                                                 
 batch_normalization_2 (Batc  (None, 1024)             4096      
 hNormalization)                                                 
                                                                 
 dropout_2 (Dropout)         (None, 1024)              0         
                                                                 
 activation_2 (Activation)   (None, 1024)              0         
                                                                 
 dense_5 (Dense)             (None, 584)               598600    
                                                                 
=================================================================
Total params: 4,172,424
Trainable params: 4,136,264
Non-trainable params: 36,160
_________________________________________________________________
Loading weights : F:\Lab\nfs\base-notredame\checkpoints\MobileNetV2_Notredame_band_aug_subject_finetuned_F50M50.92-0.5260.hdf5
…
b'F:\\Lab\\nfs\\notredame\\nir-data-face\\06427d1332.png' 233
Image shape:  (224, 224, 3)
Label:  88
Train Size : 14280
Validation Size : 3570
Test Size : 1860
Model: "model_2"
_________________________________________________________________
 Layer (type)                Output Shape              Param #   
=================================================================
 mobilenetv2_1.00_224_input   [(None, 224, 224, 3)]    0         
 (InputLayer)                                                    
                                                                 
 mobilenetv2_1.00_224 (Funct  (None, 7, 7, 1280)       2257984   
 ional)                                                          
                                                                 
 global_average_pooling2d_2   (None, 1280)             0         
 (GlobalAveragePooling2D)                                        
                                                                 
 dense_4 (Dense)             (None, 1024)              1311744   
                                                                 
 batch_normalization_2 (Batc  (None, 1024)             4096      
 hNormalization)                                                 
                                                                 
 dropout_2 (Dropout)         (None, 1024)              0         
                                                                 
 activation_2 (Activation)   (None, 1024)              0         
                                                                 
=================================================================
Total params: 3,573,824
Trainable params: 3,537,664
Non-trainable params: 36,160
_________________________________________________________________
5000 5000 10000
InceptionV3_Notredame_band_aug_subject_finetuned_F50M50
F:\Lab\nfs\base-notredame\checkpoints\InceptionV3_Notredame_band_aug_subject_finetuned_F50M50.90-0.4759.hdf5
…
, 'input': {'type': 'band', 'image_height': 224, 'image_width': 224, 'channels': 3, 'train_dir': 'F:\\Lab\\nfs\\notredame\\nir-data-face', 'eval_dir': 'F:\\Lab\\nfs\\notredame\\nir-data-face', 'labels': 'F:\\Lab\\nfs\\base-notredame\\nir_labels_', 'randaugment': True, 'randaugment_layers': 2, 'randaugment_magnitude': 12}}
Number of devices: 1
Model: "sequential_3"
_________________________________________________________________
 Layer (type)                Output Shape              Param #   
=================================================================
 inception_v3 (Functional)   (None, 5, 5, 2048)        21802784  
                                                                 
 global_average_pooling2d_3   (None, 2048)             0         
 (GlobalAveragePooling2D)                                        
                                                                 
 dense_6 (Dense)             (None, 1024)              2098176   
                                                                 
 batch_normalization_97 (Bat  (None, 1024)             4096      
 chNormalization)                                                
                                                                 
 dropout_3 (Dropout)         (None, 1024)              0         
                                                                 
 activation_97 (Activation)  (None, 1024)              0         
                                                                 
 dense_7 (Dense)             (None, 584)               598600    
                                                                 
=================================================================
Total params: 24,503,656
Trainable params: 2,698,824
Non-trainable params: 21,804,832
_________________________________________________________________
True
Model: "sequential_3"
_________________________________________________________________
 Layer (type)                Output Shape              Param #   
=================================================================
 inception_v3 (Functional)   (None, 5, 5, 2048)        21802784  
                                                                 
 global_average_pooling2d_3   (None, 2048)             0         
 (GlobalAveragePooling2D)                                        
                                                                 
 dense_6 (Dense)             (None, 1024)              2098176   
                                                                 
 batch_normalization_97 (Bat  (None, 1024)             4096      
 chNormalization)                                                
                                                                 
 dropout_3 (Dropout)         (None, 1024)              0         
                                                                 
 activation_97 (Activation)  (None, 1024)              0         
                                                                 
 dense_7 (Dense)             (None, 584)               598600    
                                                                 
=================================================================
Total params: 24,503,656
Trainable params: 24,467,176
Non-trainable params: 36,480
_________________________________________________________________
Loading weights : F:\Lab\nfs\base-notredame\checkpoints\InceptionV3_Notredame_band_aug_subject_finetuned_F50M50.90-0.4759.hdf5
…
ocalhost/replica:0/task:0/device:GPU:0 with 22057 MB memory:  -> device: 0, name: Quadro RTX 6000, pci bus id: 0000:65:00.0, compute capability: 7.5

Model: "model_3"
_________________________________________________________________
 Layer (type)                Output Shape              Param #   
=================================================================
 inception_v3_input (InputLa  [(None, 224, 224, 3)]    0         
 yer)                                                            
                                                                 
 inception_v3 (Functional)   (None, 5, 5, 2048)        21802784  
                                                                 
 global_average_pooling2d_3   (None, 2048)             0         
 (GlobalAveragePooling2D)                                        
                                                                 
 dense_6 (Dense)             (None, 1024)              2098176   
                                                                 
 batch_normalization_97 (Bat  (None, 1024)             4096      
 chNormalization)                                                
                                                                 
 dropout_3 (Dropout)         (None, 1024)              0         
                                                                 
 activation_97 (Activation)  (None, 1024)              0         
                                                                 
=================================================================
Total params: 23,905,056
Trainable params: 23,868,576
Non-trainable params: 36,480
_________________________________________________________________
5000 5000 10000
InceptionResNetV2_Notredame_band_aug_subject_finetuned_F50M50
F:\Lab\nfs\base-notredame\checkpoints\InceptionResNetV2_Notredame_band_aug_subject_finetuned_F50M50.29-0.5409.hdf5
…
 'input': {'type': 'band', 'image_height': 224, 'image_width': 224, 'channels': 3, 'train_dir': 'F:\\Lab\\nfs\\notredame\\nir-data-face', 'eval_dir': 'F:\\Lab\\nfs\\notredame\\nir-data-face', 'labels': 'F:\\Lab\\nfs\\base-notredame\\nir_labels_', 'randaugment': True, 'randaugment_layers': 2, 'randaugment_magnitude': 12}}
Number of devices: 1
Model: "sequential_4"
_________________________________________________________________
 Layer (type)                Output Shape              Param #   
=================================================================
 inception_resnet_v2 (Functi  (None, 5, 5, 1536)       54336736  
 onal)                                                           
                                                                 
 global_average_pooling2d_4   (None, 1536)             0         
 (GlobalAveragePooling2D)                                        
                                                                 
 dense_8 (Dense)             (None, 1024)              1573888   
                                                                 
 batch_normalization_301 (Ba  (None, 1024)             4096      
 tchNormalization)                                               
                                                                 
 dropout_4 (Dropout)         (None, 1024)              0         
                                                                 
 activation_301 (Activation)  (None, 1024)             0         
                                                                 
 dense_9 (Dense)             (None, 584)               598600    
                                                                 
=================================================================
Total params: 56,513,320
Trainable params: 2,174,536
Non-trainable params: 54,338,784
_________________________________________________________________
True
Model: "sequential_4"
_________________________________________________________________
 Layer (type)                Output Shape              Param #   
=================================================================
 inception_resnet_v2 (Functi  (None, 5, 5, 1536)       54336736  
 onal)                                                           
                                                                 
 global_average_pooling2d_4   (None, 1536)             0         
 (GlobalAveragePooling2D)                                        
                                                                 
 dense_8 (Dense)             (None, 1024)              1573888   
                                                                 
 batch_normalization_301 (Ba  (None, 1024)             4096      
 tchNormalization)                                               
                                                                 
 dropout_4 (Dropout)         (None, 1024)              0         
                                                                 
 activation_301 (Activation)  (None, 1024)             0         
                                                                 
 dense_9 (Dense)             (None, 584)               598600    
                                                                 
=================================================================
Total params: 56,513,320
Trainable params: 56,450,728
Non-trainable params: 62,592
_________________________________________________________________
Loading weights : F:\Lab\nfs\base-notredame\checkpoints\InceptionResNetV2_Notredame_band_aug_subject_finetuned_F50M50.29-0.5409.hdf5
…
b'F:\\Lab\\nfs\\notredame\\nir-data-face\\06257d686.png' 168
Image shape:  (224, 224, 3)
Label:  371
Train Size : 14280
Validation Size : 3570
Test Size : 1860
Model: "model_4"
_________________________________________________________________
 Layer (type)                Output Shape              Param #   
=================================================================
 inception_resnet_v2_input (  [(None, 224, 224, 3)]    0         
 InputLayer)                                                     
                                                                 
 inception_resnet_v2 (Functi  (None, 5, 5, 1536)       54336736  
 onal)                                                           
                                                                 
 global_average_pooling2d_4   (None, 1536)             0         
 (GlobalAveragePooling2D)                                        
                                                                 
 dense_8 (Dense)             (None, 1024)              1573888   
                                                                 
 batch_normalization_301 (Ba  (None, 1024)             4096      
 tchNormalization)                                               
                                                                 
 dropout_4 (Dropout)         (None, 1024)              0         
                                                                 
 activation_301 (Activation)  (None, 1024)             0         
                                                                 
=================================================================
Total params: 55,914,720
  0%|          | 0/79 [00:00<?, ?it/s]  1%|1         | 1/79 [00:05<06:41,  5.14s/it]  3%|2         | 2/79 [00:06<03:48,  2.97s/it]  4%|3         | 3/79 [00:07<02:47,  2.20s/it]  5%|5         | 4/79 [00:09<02:19,  1.87s/it] 
…
, 'input': {'type': 'band', 'image_height': 224, 'image_width': 224, 'channels': 3, 'train_dir': 'F:\\Lab\\nfs\\notredame\\nir-data-face', 'eval_dir': 'F:\\Lab\\nfs\\notredame\\nir-data-face', 'labels': 'F:\\Lab\\nfs\\base-notredame\\nir_labels_', 'randaugment': True, 'randaugment_layers': 2, 'randaugment_magnitude': 12}}
Number of devices: 1
Model: "sequential_5"
_________________________________________________________________
 Layer (type)                Output Shape              Param #   
=================================================================
 resnet50 (Functional)       (None, 7, 7, 2048)        23587712  
                                                                 
 global_average_pooling2d_5   (None, 2048)             0         
 (GlobalAveragePooling2D)                                        
                                                                 
 dense_10 (Dense)            (None, 1024)              2098176   
                                                                 
 batch_normalization_302 (Ba  (None, 1024)             4096      
 tchNormalization)                                               
                                                                 
 dropout_5 (Dropout)         (None, 1024)              0         
                                                                 
 activation_302 (Activation)  (None, 1024)             0         
                                                                 
 dense_11 (Dense)            (None, 584)               598600    
                                                                 
=================================================================
Total params: 26,288,584
Trainable params: 2,698,824
Non-trainable params: 23,589,760
_________________________________________________________________
True
Model: "sequential_5"
_________________________________________________________________
 Layer (type)                Output Shape              Param #   
=================================================================
 resnet50 (Functional)       (None, 7, 7, 2048)        23587712  
                                                                 
 global_average_pooling2d_5   (None, 2048)             0         
 (GlobalAveragePooling2D)                                        
                                                                 
 dense_10 (Dense)            (None, 1024)              2098176   
                                                                 
 batch_normalization_302 (Ba  (None, 1024)             4096      
 tchNormalization)                                               
                                                                 
 dropout_5 (Dropout)         (None, 1024)              0         
                                                                 
 activation_302 (Activation)  (None, 1024)             0         
                                                                 
 dense_11 (Dense)            (None, 584)               598600    
                                                                 
=================================================================
Total params: 26,288,584
Trainable params: 26,233,416
Non-trainable params: 55,168
_________________________________________________________________
Loading weights : F:\Lab\nfs\base-notredame\checkpoints\ResNet50_Notredame_band_aug_subject_finetuned_F50M50.99-0.3688.hdf5
…
b'F:\\Lab\\nfs\\notredame\\nir-data-face\\06489d292.png' 251
b'F:\\Lab\\nfs\\notredame\\nir-data-face\\05619d1959.png' 33
Image shape:  (224, 224, 3)
Label:  319
Train Size : 14280
Validation Size : 3570
Test Size : 1860
Model: "model_5"
_________________________________________________________________
 Layer (type)                Output Shape              Param #   
=================================================================
 resnet50_input (InputLayer)  [(None, 224, 224, 3)]    0         
                                                                 
 resnet50 (Functional)       (None, 7, 7, 2048)        23587712  
                                                                 
 global_average_pooling2d_5   (None, 2048)             0         
 (GlobalAveragePooling2D)                                        
                                                                 
 dense_10 (Dense)            (None, 1024)              2098176   
                                                                 
 batch_normalization_302 (Ba  (None, 1024)             4096      
 tchNormalization)                                               
                                                                 
 dropout_5 (Dropout)         (None, 1024)              0         
                                                                 
 activation_302 (Activation)  (None, 1024)             0         
                                                                 
=================================================================
Total params: 25,689,984
Trainable params: 25,634,816
Non-trainable params: 55,168
_________________________________________________________________
5000 5000 10000
VGG19_Notredame_band_aug_subject_finetuned_F50M50
F:\Lab\nfs\base-notredame\checkpoints\VGG19_Notredame_band_aug_subject_finetuned_F50M50.52-0.4630.hdf5
…
 [00:49<00:03,  1.47it/s] 95%|#########4| 75/79 [00:50<00:02,  1.46it/s] 96%|#########6| 76/79 [00:50<00:02,  1.44it/s] 97%|#########7| 77/79 [00:51<00:01,  1.44it/s] 99%|#########8| 78/79 [00:51<00:00,  1.54it/s]100%|##########| 79/79 [00:53<00:00,  1.08it/s]100%|##########| 79/79 [00:53<00:00,  1.48it/s]2021-11-15 10:15:51.124028: I tensorflow/core/common_runtime/gpu/gpu_device.cc:1525] Created device /job:localhost/replica:0/task:0/device:GPU:0 with 22057 MB memory:  -> device: 0, name: Quadro RTX 6000, pci bus id: 0000:65:00.0, compute capability: 7.5

 global_average_pooling2d_6   (None, 512)              0         
 (GlobalAveragePooling2D)                                        
                                                                 
 dense_12 (Dense)            (None, 1024)              525312    
                                                                 
 batch_normalization_303 (Ba  (None, 1024)             4096      
 tchNormalization)                                               
                                                                 
 dropout_6 (Dropout)         (None, 1024)              0         
                                                                 
 activation_303 (Activation)  (None, 1024)             0         
                                                                 
 dense_13 (Dense)            (None, 584)               598600    
                                                                 
=================================================================
Total params: 21,152,392
Trainable params: 1,125,960
Non-trainable params: 20,026,432
_________________________________________________________________
True
Model: "sequential_6"
_________________________________________________________________
 Layer (type)                Output Shape              Param #   
=================================================================
 vgg19 (Functional)          (None, 7, 7, 512)         20024384  
                                                                 
 global_average_pooling2d_6   (None, 512)              0         
 (GlobalAveragePooling2D)                                        
                                                                 
 dense_12 (Dense)            (None, 1024)              525312    
                                                                 
 batch_normalization_303 (Ba  (None, 1024)             4096      
 tchNormalization)                                               
                                                                 
 dropout_6 (Dropout)         (None, 1024)              0         
                                                                 
 activation_303 (Activation)  (None, 1024)             0         
                                                                 
 dense_13 (Dense)            (None, 584)               598600    
                                                                 
=================================================================
Total params: 21,152,392
Trainable params: 21,150,344
Non-trainable params: 2,048
_________________________________________________________________
Loading weights : F:\Lab\nfs\base-notredame\checkpoints\VGG19_Notredame_band_aug_subject_finetuned_F50M50.52-0.4630.hdf5
…
b'F:\\Lab\\nfs\\notredame\\nir-data-face\\06589d724.png' 293
b'F:\\Lab\\nfs\\notredame\\nir-data-face\\06519d569.png' 266
Image shape:  (224, 224, 3)
Label:  75
Train Size : 14280
Validation Size : 3570
Test Size : 1860
Model: "model_6"
_________________________________________________________________
 Layer (type)                Output Shape              Param #   
=================================================================
 vgg19_input (InputLayer)    [(None, 224, 224, 3)]     0         
                                                                 
 vgg19 (Functional)          (None, 7, 7, 512)         20024384  
                                                                 
 global_average_pooling2d_6   (None, 512)              0         
 (GlobalAveragePooling2D)                                        
                                                                 
 dense_12 (Dense)            (None, 1024)              525312    
                                                                 
 batch_normalization_303 (Ba  (None, 1024)             4096      
 tchNormalization)                                               
                                                                 
 dropout_6 (Dropout)         (None, 1024)              0         
                                                                 
 activation_303 (Activation)  (None, 1024)             0         
                                                                 
=================================================================
Total params: 20,553,792
Trainable params: 20,551,744
Non-trainable params: 2,048
_________________________________________________________________
5000 5000 10000
Xception_Notredame_band_aug_subject_finetuned_F50M50
F:\Lab\nfs\base-notredame\checkpoints\Xception_Notredame_band_aug_subject_finetuned_F50M50.94-0.5978.hdf5
…
, 'input': {'type': 'band', 'image_height': 224, 'image_width': 224, 'channels': 3, 'train_dir': 'F:\\Lab\\nfs\\notredame\\nir-data-face', 'eval_dir': 'F:\\Lab\\nfs\\notredame\\nir-data-face', 'labels': 'F:\\Lab\\nfs\\base-notredame\\nir_labels_', 'randaugment': True, 'randaugment_layers': 2, 'randaugment_magnitude': 12}}
Number of devices: 1
Model: "sequential_7"
_________________________________________________________________
 Layer (type)                Output Shape              Param #   
=================================================================
 xception (Functional)       (None, 7, 7, 2048)        20861480  
                                                                 
 global_average_pooling2d_7   (None, 2048)             0         
 (GlobalAveragePooling2D)                                        
                                                                 
 dense_14 (Dense)            (None, 1024)              2098176   
                                                                 
 batch_normalization_308 (Ba  (None, 1024)             4096      
 tchNormalization)                                               
                                                                 
 dropout_7 (Dropout)         (None, 1024)              0         
                                                                 
 activation_304 (Activation)  (None, 1024)             0         
                                                                 
 dense_15 (Dense)            (None, 584)               598600    
                                                                 
=================================================================
Total params: 23,562,352
Trainable params: 2,698,824
Non-trainable params: 20,863,528
_________________________________________________________________
True
Model: "sequential_7"
_________________________________________________________________
 Layer (type)                Output Shape              Param #   
=================================================================
 xception (Functional)       (None, 7, 7, 2048)        20861480  
                                                                 
 global_average_pooling2d_7   (None, 2048)             0         
 (GlobalAveragePooling2D)                                        
                                                                 
 dense_14 (Dense)            (None, 1024)              2098176   
  0%|          | 0/79 [00:00<?, ?it/s]  1%|1         | 1/79 [00:02<02:38,  2.03s/it]  3%|2         | 2/79 [00:02<01:35,  1.25s/it]  4%|3         | 3/79 [00:03<01:13,  1.03it/s]  5%|5         | 4/79 [00:04<01:05,  1.15it/s]  6%|6         | 5/79 [00:04<00:58,  1.26it/s]  8%|7         | 6/79 [00:05<00:54,  1.34it/s]  9%|8         | 7/79 [00:06<00:51,  1.39it/s] 10%|#         | 8/79 [00:
…
b'F:\\Lab\\nfs\\notredame\\nir-data-face\\06344d1153.png' 197
b'F:\\Lab\\nfs\\notredame\\nir-data-face\\06030d1722.png' 107
Image shape:  (224, 224, 3)
Label:  398
Train Size : 14280
Validation Size : 3570
Test Size : 1860
Model: "model_7"
_________________________________________________________________
 Layer (type)                Output Shape              Param #   
=================================================================
 xception_input (InputLayer)  [(None, 224, 224, 3)]    0         
                                                                 
 xception (Functional)       (None, 7, 7, 2048)        20861480  
                                                                 
 global_average_pooling2d_7   (None, 2048)             0         
 (GlobalAveragePooling2D)                                        
                                                                 
 dense_14 (Dense)            (None, 1024)              2098176   
                                                                 
 batch_normalization_308 (Ba  (None, 1024)             4096      
 tchNormalization)                                               
                                                                 
 dropout_7 (Dropout)         (None, 1024)              0         
                                                                 
 activation_304 (Activation)  (None, 1024)             0         
                                                                 
=================================================================
Total params: 22,963,752
Trainable params: 22,907,176
Non-trainable params: 56,576
_________________________________________________________________
5000 5000 10000
EfficientNetB0_Notredame_band_aug_subject_finetuned_F50M50
F:\Lab\nfs\base-notredame\checkpoints\EfficientNetB0_Notredame_band_aug_subject_finetuned_F50M50.79-0.3495.hdf5
…
 'input': {'type': 'band', 'image_height': 224, 'image_width': 224, 'channels': 3, 'train_dir': 'F:\\Lab\\nfs\\notredame\\nir-data-face', 'eval_dir': 'F:\\Lab\\nfs\\notredame\\nir-data-face', 'labels': 'F:\\Lab\\nfs\\base-notredame\\nir_labels_', 'randaugment': True, 'randaugment_layers': 2, 'randaugment_magnitude': 12}}
Number of devices: 1
Model: "sequential_8"
_________________________________________________________________
 Layer (type)                Output Shape              Param #   
=================================================================
 efficientnetb0 (Functional)  (None, 7, 7, 1280)       4049571   
                                                                 
 global_average_pooling2d_8   (None, 1280)             0         
 (GlobalAveragePooling2D)                                        
                                                                 
 dense_16 (Dense)            (None, 1024)              1311744   
                                                                 
 batch_normalization_309 (Ba  (None, 1024)             4096      
 tchNormalization)                                               
                                                                 
 dropout_8 (Dropout)         (None, 1024)              0         
                                                                 
 activation_305 (Activation)  (None, 1024)             0         
                                                                 
 dense_17 (Dense)            (None, 584)               598600    
                                                                 
=================================================================
Total params: 5,964,011
Trainable params: 1,912,392
Non-trainable params: 4,051,619
_________________________________________________________________
True
Model: "sequential_8"
_________________________________________________________________
 Layer (type)                Output Shape              Param #   
=================================================================
 efficientnetb0 (Functional)  (None, 7, 7, 1280)       4049571   
                                                                 
 global_average_pooling2d_8   (None, 1280)             0         
 (GlobalAveragePooling2D)                                        
                                                                 
 dense_16 (Dense)            (None, 1024)              1311744   
                                                                 
 batch_normalization_309 (Ba  (None, 1024)             4096      
 tchNormalization)                                               
                                                                 
 dropout_8 (Dropout)         (None, 1024)              0         
                                                                 
 activation_305 (Activation)  (None, 1024)             0         
                                                                 
 dense_17 (Dense)            (None, 584)               598600    
                                                                 
=================================================================
Total params: 5,964,011
Trainable params: 5,919,940
Non-trainable params: 44,071
_________________________________________________________________
Loading weights : F:\Lab\nfs\base-notredame\checkpoints\EfficientNetB0_Notredame_band_aug_subject_finetuned_F50M50.79-0.3495.hdf5
…
 91%|#########1| 72/79 [00:46<00:04,  1.43it/s] 92%|#########2| 73/79 [00:46<00:04,  1.46it/s] 94%|#########3| 74/79 [00:47<00:03,  1.48it/s] 95%|#########4| 75/79 [00:48<00:02,  1.43it/s] 96%|#########6| 76/79 [00:48<00:02,  1.45it/s] 97%|#########7| 77/79 [00:49<00:01,  1.47it/s] 99%|#########8| 78/79 [00:50<00:00,  1.52it/s]100%|##########| 79/79 [00:51<00:00,  1.08it/s]100%|##########| 79/79 [00:51<00:00,  1.53it/s]

 Layer)                                                          
                                                                 
 efficientnetb0 (Functional)  (None, 7, 7, 1280)       4049571   
                                                                 
 global_average_pooling2d_8   (None, 1280)             0         
 (GlobalAveragePooling2D)                                        
                                                                 
 dense_16 (Dense)            (None, 1024)              1311744   
                                                                 
 batch_normalization_309 (Ba  (None, 1024)             4096      
 tchNormalization)                                               
                                                                 
 dropout_8 (Dropout)         (None, 1024)              0         
                                                                 
 activation_305 (Activation)  (None, 1024)             0         
                                                                 
=================================================================
Total params: 5,365,411
Trainable params: 5,321,340
Non-trainable params: 44,071
_________________________________________________________________
5000 5000 10000
Exception ignored in: <function Pool.__del__ at 0x000001E4A8BA2E50>
Traceback (most recent call last):
…
