…
ut': {'type': 'band', 'image_height': 168, 'image_width': 224, 'channels': 3, 'train_dir': 'F:\\Lab\\datasets\\nd-iris\\train.tfrecord', 'eval_dir': 'F:\\Lab\\datasets\\nd-iris\\test.tfrecord', 'labels': 'F:\\Lab\\nfs\\base-notredame\\nir_labels_', 'randaugment': True, 'randaugment_layers': 2, 'randaugment_magnitude': 12}}
Number of devices: 2
Model: "sequential"
_________________________________________________________________
 Layer (type)                Output Shape              Param #   
=================================================================
 efficientnetb4 (Functional)  (None, 6, 7, 1792)       17673823  
                                                                 
 global_average_pooling2d (G  (None, 1792)             0         
 lobalAveragePooling2D)                                          
                                                                 
 dense (Dense)               (None, 1024)              1836032   
                                                                 
 batch_normalization (BatchN  (None, 1024)             4096      
 ormalization)                                                   
                                                                 
 dropout (Dropout)           (None, 1024)              0         
                                                                 
 activation (Activation)     (None, 1024)              0         
                                                                 
 dense_1 (Dense)             (None, 2)                 2050      
                                                                 
=================================================================
Total params: 19,516,001
Trainable params: 1,840,130
Non-trainable params: 17,675,871
_________________________________________________________________
Image shape:  (168, 224, 3)
Label:  1
Image shape:  (168, 224, 3)
Label:  1
Epoch 1/1000
31/31 - 277s - loss: 1.5785 - accuracy: 0.5261 - val_loss: 0.7717 - val_accuracy: 0.5406 - 277s/epoch - 9s/step
…
t': {'type': 'band', 'image_height': 168, 'image_width': 224, 'channels': 3, 'train_dir': 'F:\\Lab\\datasets\\nd-iris\\train.tfrecord', 'eval_dir': 'F:\\Lab\\datasets\\nd-iris\\test.tfrecord', 'labels': 'F:\\Lab\\nfs\\base-notredame\\nir_labels_', 'randaugment': True, 'randaugment_layers': 2, 'randaugment_magnitude': 12}}
Number of devices: 2
Model: "sequential_1"
_________________________________________________________________
 Layer (type)                Output Shape              Param #   
=================================================================
 densenet121 (Functional)    (None, 5, 7, 1024)        7037504   
                                                                 
 global_average_pooling2d_1   (None, 1024)             0         
 (GlobalAveragePooling2D)                                        
                                                                 
 dense_2 (Dense)             (None, 1024)              1049600   
                                                                 
 batch_normalization_1 (Batc  (None, 1024)             4096      
 hNormalization)                                                 
                                                                 
 dropout_1 (Dropout)         (None, 1024)              0         
                                                                 
 activation_1 (Activation)   (None, 1024)              0         
                                                                 
 dense_3 (Dense)             (None, 2)                 2050      
                                                                 
=================================================================
Total params: 8,093,250
Trainable params: 1,053,698
Non-trainable params: 7,039,552
_________________________________________________________________
Image shape:  (168, 224, 3)
Label:  1
Image shape:  (168, 224, 3)
Label:  1
Epoch 1/1000
31/31 - 376s - loss: 1.5040 - accuracy: 0.5085 - val_loss: 0.7135 - val_accuracy: 0.5537 - 376s/epoch - 12s/step
…
': {'type': 'band', 'image_height': 168, 'image_width': 224, 'channels': 3, 'train_dir': 'F:\\Lab\\datasets\\nd-iris\\train.tfrecord', 'eval_dir': 'F:\\Lab\\datasets\\nd-iris\\test.tfrecord', 'labels': 'F:\\Lab\\nfs\\base-notredame\\nir_labels_', 'randaugment': True, 'randaugment_layers': 2, 'randaugment_magnitude': 12}}
Number of devices: 2
Model: "sequential_2"
_________________________________________________________________
 Layer (type)                Output Shape              Param #   
=================================================================
 mobilenetv2_1.00_224 (Funct  (None, 6, 7, 1280)       2257984   
 ional)                                                          
                                                                 
 global_average_pooling2d_2   (None, 1280)             0         
 (GlobalAveragePooling2D)                                        
                                                                 
 dense_4 (Dense)             (None, 1024)              1311744   
                                                                 
 batch_normalization_2 (Batc  (None, 1024)             4096      
 hNormalization)                                                 
                                                                 
 dropout_2 (Dropout)         (None, 1024)              0         
                                                                 
 activation_2 (Activation)   (None, 1024)              0         
                                                                 
 dense_5 (Dense)             (None, 2)                 2050      
                                                                 
=================================================================
Total params: 3,575,874
Trainable params: 1,315,842
Non-trainable params: 2,260,032
_________________________________________________________________
Image shape:  (168, 224, 3)
Label:  1
Image shape:  (168, 224, 3)
Label:  1
Epoch 1/1000
31/31 - 383s - loss: 1.3549 - accuracy: 0.4452 - val_loss: 0.6184 - val_accuracy: 0.6571 - 383s/epoch - 12s/step
…
t': {'type': 'band', 'image_height': 168, 'image_width': 224, 'channels': 3, 'train_dir': 'F:\\Lab\\datasets\\nd-iris\\train.tfrecord', 'eval_dir': 'F:\\Lab\\datasets\\nd-iris\\test.tfrecord', 'labels': 'F:\\Lab\\nfs\\base-notredame\\nir_labels_', 'randaugment': True, 'randaugment_layers': 2, 'randaugment_magnitude': 12}}
Number of devices: 2
Model: "sequential_3"
_________________________________________________________________
 Layer (type)                Output Shape              Param #   
=================================================================
 inception_v3 (Functional)   (None, 3, 5, 2048)        21802784  
                                                                 
 global_average_pooling2d_3   (None, 2048)             0         
 (GlobalAveragePooling2D)                                        
                                                                 
 dense_6 (Dense)             (None, 1024)              2098176   
                                                                 
 batch_normalization_97 (Bat  (None, 1024)             4096      
 chNormalization)                                                
                                                                 
 dropout_3 (Dropout)         (None, 1024)              0         
                                                                 
 activation_97 (Activation)  (None, 1024)              0         
                                                                 
 dense_7 (Dense)             (None, 2)                 2050      
                                                                 
=================================================================
Total params: 23,907,106
Trainable params: 2,102,274
Non-trainable params: 21,804,832
_________________________________________________________________
Image shape:  (168, 224, 3)
Label:  1
Image shape:  (168, 224, 3)
Label:  1
Epoch 1/1000
31/31 - 406s - loss: 1.4777 - accuracy: 0.4991 - val_loss: 1.4299 - val_accuracy: 0.5048 - 406s/epoch - 13s/step
…
': {'type': 'band', 'image_height': 168, 'image_width': 224, 'channels': 3, 'train_dir': 'F:\\Lab\\datasets\\nd-iris\\train.tfrecord', 'eval_dir': 'F:\\Lab\\datasets\\nd-iris\\test.tfrecord', 'labels': 'F:\\Lab\\nfs\\base-notredame\\nir_labels_', 'randaugment': True, 'randaugment_layers': 2, 'randaugment_magnitude': 12}}
Number of devices: 2
Model: "sequential_4"
_________________________________________________________________
 Layer (type)                Output Shape              Param #   
=================================================================
 inception_resnet_v2 (Functi  (None, 3, 5, 1536)       54336736  
 onal)                                                           
                                                                 
 global_average_pooling2d_4   (None, 1536)             0         
 (GlobalAveragePooling2D)                                        
                                                                 
 dense_8 (Dense)             (None, 1024)              1573888   
                                                                 
 batch_normalization_301 (Ba  (None, 1024)             4096      
 tchNormalization)                                               
                                                                 
 dropout_4 (Dropout)         (None, 1024)              0         
                                                                 
 activation_301 (Activation)  (None, 1024)             0         
                                                                 
 dense_9 (Dense)             (None, 2)                 2050      
                                                                 
=================================================================
Total params: 55,916,770
Trainable params: 1,577,986
Non-trainable params: 54,338,784
_________________________________________________________________
Image shape:  (168, 224, 3)
Label:  1
Image shape:  (168, 224, 3)
Label:  1
Epoch 1/1000
31/31 - 440s - loss: 1.3690 - accuracy: 0.4754 - val_loss: 1.2900 - val_accuracy: 0.5000 - 440s/epoch - 14s/step
…
t': {'type': 'band', 'image_height': 168, 'image_width': 224, 'channels': 3, 'train_dir': 'F:\\Lab\\datasets\\nd-iris\\train.tfrecord', 'eval_dir': 'F:\\Lab\\datasets\\nd-iris\\test.tfrecord', 'labels': 'F:\\Lab\\nfs\\base-notredame\\nir_labels_', 'randaugment': True, 'randaugment_layers': 2, 'randaugment_magnitude': 12}}
Number of devices: 2
Model: "sequential_5"
_________________________________________________________________
 Layer (type)                Output Shape              Param #   
=================================================================
 resnet50 (Functional)       (None, 6, 7, 2048)        23587712  
                                                                 
 global_average_pooling2d_5   (None, 2048)             0         
 (GlobalAveragePooling2D)                                        
                                                                 
 dense_10 (Dense)            (None, 1024)              2098176   
                                                                 
 batch_normalization_302 (Ba  (None, 1024)             4096      
 tchNormalization)                                               
                                                                 
 dropout_5 (Dropout)         (None, 1024)              0         
                                                                 
 activation_302 (Activation)  (None, 1024)             0         
                                                                 
 dense_11 (Dense)            (None, 2)                 2050      
                                                                 
=================================================================
Total params: 25,692,034
Trainable params: 2,102,274
Non-trainable params: 23,589,760
_________________________________________________________________
Image shape:  (168, 224, 3)
Label:  1
Image shape:  (168, 224, 3)
Label:  1
Epoch 1/1000
31/31 - 486s - loss: 1.4057 - accuracy: 0.4737 - val_loss: 0.9731 - val_accuracy: 0.5146 - 486s/epoch - 16s/step
…
t': {'type': 'band', 'image_height': 168, 'image_width': 224, 'channels': 3, 'train_dir': 'F:\\Lab\\datasets\\nd-iris\\train.tfrecord', 'eval_dir': 'F:\\Lab\\datasets\\nd-iris\\test.tfrecord', 'labels': 'F:\\Lab\\nfs\\base-notredame\\nir_labels_', 'randaugment': True, 'randaugment_layers': 2, 'randaugment_magnitude': 12}}
Number of devices: 2
Model: "sequential_6"
_________________________________________________________________
 Layer (type)                Output Shape              Param #   
=================================================================
 vgg19 (Functional)          (None, 5, 7, 512)         20024384  
                                                                 
 global_average_pooling2d_6   (None, 512)              0         
 (GlobalAveragePooling2D)                                        
                                                                 
 dense_12 (Dense)            (None, 1024)              525312    
                                                                 
 batch_normalization_303 (Ba  (None, 1024)             4096      
 tchNormalization)                                               
                                                                 
 dropout_6 (Dropout)         (None, 1024)              0         
                                                                 
 activation_303 (Activation)  (None, 1024)             0         
                                                                 
 dense_13 (Dense)            (None, 2)                 2050      
                                                                 
=================================================================
Total params: 20,555,842
Trainable params: 529,410
Non-trainable params: 20,026,432
_________________________________________________________________
Image shape:  (168, 224, 3)
Label:  1
Image shape:  (168, 224, 3)
Label:  1
Epoch 1/1000
31/31 - 1352s - loss: 1.3418 - accuracy: 0.3337 - val_loss: 1.5197 - val_accuracy: 0.5003 - 1352s/epoch - 44s/step
…
t': {'type': 'band', 'image_height': 168, 'image_width': 224, 'channels': 3, 'train_dir': 'F:\\Lab\\datasets\\nd-iris\\train.tfrecord', 'eval_dir': 'F:\\Lab\\datasets\\nd-iris\\test.tfrecord', 'labels': 'F:\\Lab\\nfs\\base-notredame\\nir_labels_', 'randaugment': True, 'randaugment_layers': 2, 'randaugment_magnitude': 12}}
Number of devices: 2
Model: "sequential_7"
_________________________________________________________________
 Layer (type)                Output Shape              Param #   
=================================================================
 xception (Functional)       (None, 6, 7, 2048)        20861480  
                                                                 
 global_average_pooling2d_7   (None, 2048)             0         
 (GlobalAveragePooling2D)                                        
                                                                 
 dense_14 (Dense)            (None, 1024)              2098176   
                                                                 
 batch_normalization_308 (Ba  (None, 1024)             4096      
 tchNormalization)                                               
                                                                 
 dropout_7 (Dropout)         (None, 1024)              0         
                                                                 
 activation_304 (Activation)  (None, 1024)             0         
                                                                 
 dense_15 (Dense)            (None, 2)                 2050      
                                                                 
=================================================================
Total params: 22,965,802
Trainable params: 2,102,274
Non-trainable params: 20,863,528
_________________________________________________________________
Image shape:  (168, 224, 3)
Label:  1
Image shape:  (168, 224, 3)
Label:  1
Epoch 1/1000
31/31 - 474s - loss: 1.3471 - accuracy: 0.4607 - val_loss: 0.7452 - val_accuracy: 0.5102 - 474s/epoch - 15s/step
…
': {'type': 'band', 'image_height': 168, 'image_width': 224, 'channels': 3, 'train_dir': 'F:\\Lab\\datasets\\nd-iris\\train.tfrecord', 'eval_dir': 'F:\\Lab\\datasets\\nd-iris\\test.tfrecord', 'labels': 'F:\\Lab\\nfs\\base-notredame\\nir_labels_', 'randaugment': True, 'randaugment_layers': 2, 'randaugment_magnitude': 12}}
Number of devices: 2
Model: "sequential_8"
_________________________________________________________________
 Layer (type)                Output Shape              Param #   
=================================================================
 efficientnetb0 (Functional)  (None, 6, 7, 1280)       4049571   
                                                                 
 global_average_pooling2d_8   (None, 1280)             0         
 (GlobalAveragePooling2D)                                        
                                                                 
 dense_16 (Dense)            (None, 1024)              1311744   
                                                                 
 batch_normalization_309 (Ba  (None, 1024)             4096      
 tchNormalization)                                               
                                                                 
 dropout_8 (Dropout)         (None, 1024)              0         
                                                                 
 activation_305 (Activation)  (None, 1024)             0         
                                                                 
 dense_17 (Dense)            (None, 2)                 2050      
                                                                 
=================================================================
Total params: 5,367,461
Trainable params: 1,315,842
Non-trainable params: 4,051,619
_________________________________________________________________
Image shape:  (168, 224, 3)
Label:  1
Image shape:  (168, 224, 3)
Label:  1
Epoch 1/1000
31/31 - 537s - loss: 1.3862 - accuracy: 0.4867 - val_loss: 0.6742 - val_accuracy: 0.5644 - 537s/epoch - 17s/step
…
': {'type': 'band', 'image_height': 168, 'image_width': 224, 'channels': 3, 'train_dir': 'F:\\Lab\\datasets\\nd-iris\\train.tfrecord', 'eval_dir': 'F:\\Lab\\datasets\\nd-iris\\test.tfrecord', 'labels': 'F:\\Lab\\nfs\\base-notredame\\nir_labels_', 'randaugment': True, 'randaugment_layers': 2, 'randaugment_magnitude': 12}}
Number of devices: 2
Model: "sequential_9"
_________________________________________________________________
 Layer (type)                Output Shape              Param #   
=================================================================
 efficientnetb4 (Functional)  (None, 6, 7, 1792)       17673823  
                                                                 
 global_average_pooling2d_9   (None, 1792)             0         
 (GlobalAveragePooling2D)                                        
                                                                 
 dense_18 (Dense)            (None, 1024)              1836032   
                                                                 
 batch_normalization_310 (Ba  (None, 1024)             4096      
 tchNormalization)                                               
                                                                 
 dropout_9 (Dropout)         (None, 1024)              0         
                                                                 
 activation_306 (Activation)  (None, 1024)             0         
                                                                 
 dense_19 (Dense)            (None, 2)                 2050      
                                                                 
=================================================================
Total params: 19,516,001
Trainable params: 1,840,130
Non-trainable params: 17,675,871
_________________________________________________________________
Loading weights : F:\Lab\nfs\base-ndiris\checkpoints\EfficientNetB4_Notredame_band_aug_gender_base_F50M50.hdf5
Model: "sequential_9"
_________________________________________________________________
 Layer (type)                Output Shape              Param #   
=================================================================
 efficientnetb4 (Functional)  (None, 6, 7, 1792)       17673823  
                                                                 
 global_average_pooling2d_9   (None, 1792)             0         
 (GlobalAveragePooling2D)                                        
                                                                 
 dense_18 (Dense)            (None, 1024)              1836032   
                                                                 
 batch_normalization_310 (Ba  (None, 1024)             4096      
 tchNormalization)                                               
                                                                 
 dropout_9 (Dropout)         (None, 1024)              0         
                                                                 
 activation_306 (Activation)  (None, 1024)             0         
                                                                 
 dense_19 (Dense)            (None, 2)                 2050      
                                                                 
=================================================================
Total params: 19,516,001
Trainable params: 19,388,746
Non-trainable params: 127,255
_________________________________________________________________
Image shape:  (168, 224, 3)
Label:  1
Image shape:  (168, 224, 3)
Label:  1
Epoch 1/1000
124/124 - 598s - loss: 0.4579 - accuracy: 0.8684 - val_loss: 2.1560 - val_accuracy: 0.5000 - 598s/epoch - 5s/step
…
': {'type': 'band', 'image_height': 168, 'image_width': 224, 'channels': 3, 'train_dir': 'F:\\Lab\\datasets\\nd-iris\\train.tfrecord', 'eval_dir': 'F:\\Lab\\datasets\\nd-iris\\test.tfrecord', 'labels': 'F:\\Lab\\nfs\\base-notredame\\nir_labels_', 'randaugment': True, 'randaugment_layers': 2, 'randaugment_magnitude': 12}}
Number of devices: 2
Model: "sequential_10"
_________________________________________________________________
 Layer (type)                Output Shape              Param #   
=================================================================
 densenet121 (Functional)    (None, 5, 7, 1024)        7037504   
                                                                 
 global_average_pooling2d_10  (None, 1024)             0         
  (GlobalAveragePooling2D)                                       
                                                                 
 dense_20 (Dense)            (None, 1024)              1049600   
                                                                 
 batch_normalization_311 (Ba  (None, 1024)             4096      
 tchNormalization)                                               
                                                                 
 dropout_10 (Dropout)        (None, 1024)              0         
                                                                 
 activation_307 (Activation)  (None, 1024)             0         
                                                                 
 dense_21 (Dense)            (None, 2)                 2050      
                                                                 
=================================================================
Total params: 8,093,250
Trainable params: 1,053,698
Non-trainable params: 7,039,552
_________________________________________________________________
Loading weights : F:\Lab\nfs\base-ndiris\checkpoints\DenseNet121_Notredame_band_aug_gender_base_F50M50.hdf5
Model: "sequential_10"
_________________________________________________________________
 Layer (type)                Output Shape              Param #   
=================================================================
 densenet121 (Functional)    (None, 5, 7, 1024)        7037504   
                                                                 
 global_average_pooling2d_10  (None, 1024)             0         
  (GlobalAveragePooling2D)                                       
                                                                 
 dense_20 (Dense)            (None, 1024)              1049600   
                                                                 
 batch_normalization_311 (Ba  (None, 1024)             4096      
 tchNormalization)                                               
                                                                 
 dropout_10 (Dropout)        (None, 1024)              0         
                                                                 
 activation_307 (Activation)  (None, 1024)             0         
                                                                 
 dense_21 (Dense)            (None, 2)                 2050      
                                                                 
=================================================================
Total params: 8,093,250
Trainable params: 8,007,554
Non-trainable params: 85,696
_________________________________________________________________
Image shape:  (168, 224, 3)
Label:  1
Image shape:  (168, 224, 3)
Label:  1
Epoch 1/1000
124/124 - 886s - loss: 0.2676 - accuracy: 0.9180 - val_loss: 2.3388 - val_accuracy: 0.5032 - 886s/epoch - 7s/step
…
: {'type': 'band', 'image_height': 168, 'image_width': 224, 'channels': 3, 'train_dir': 'F:\\Lab\\datasets\\nd-iris\\train.tfrecord', 'eval_dir': 'F:\\Lab\\datasets\\nd-iris\\test.tfrecord', 'labels': 'F:\\Lab\\nfs\\base-notredame\\nir_labels_', 'randaugment': True, 'randaugment_layers': 2, 'randaugment_magnitude': 12}}
Number of devices: 2
Model: "sequential_11"
_________________________________________________________________
 Layer (type)                Output Shape              Param #   
=================================================================
 mobilenetv2_1.00_224 (Funct  (None, 6, 7, 1280)       2257984   
 ional)                                                          
                                                                 
 global_average_pooling2d_11  (None, 1280)             0         
  (GlobalAveragePooling2D)                                       
                                                                 
 dense_22 (Dense)            (None, 1024)              1311744   
                                                                 
 batch_normalization_312 (Ba  (None, 1024)             4096      
 tchNormalization)                                               
                                                                 
 dropout_11 (Dropout)        (None, 1024)              0         
                                                                 
 activation_308 (Activation)  (None, 1024)             0         
                                                                 
 dense_23 (Dense)            (None, 2)                 2050      
                                                                 
=================================================================
Total params: 3,575,874
Trainable params: 1,315,842
Non-trainable params: 2,260,032
_________________________________________________________________
Loading weights : F:\Lab\nfs\base-ndiris\checkpoints\MobileNetV2_Notredame_band_aug_gender_base_F50M50.hdf5
Model: "sequential_11"
_________________________________________________________________
 Layer (type)                Output Shape              Param #   
=================================================================
 mobilenetv2_1.00_224 (Funct  (None, 6, 7, 1280)       2257984   
 ional)                                                          
                                                                 
 global_average_pooling2d_11  (None, 1280)             0         
  (GlobalAveragePooling2D)                                       
                                                                 
 dense_22 (Dense)            (None, 1024)              1311744   
                                                                 
 batch_normalization_312 (Ba  (None, 1024)             4096      
 tchNormalization)                                               
                                                                 
 dropout_11 (Dropout)        (None, 1024)              0         
                                                                 
 activation_308 (Activation)  (None, 1024)             0         
                                                                 
 dense_23 (Dense)            (None, 2)                 2050      
                                                                 
=================================================================
Total params: 3,575,874
Trainable params: 3,539,714
Non-trainable params: 36,160
_________________________________________________________________
Image shape:  (168, 224, 3)
Label:  1
Image shape:  (168, 224, 3)
Label:  1
Epoch 1/1000
124/124 - 981s - loss: 0.4802 - accuracy: 0.8598 - val_loss: 3.8938 - val_accuracy: 0.5000 - 981s/epoch - 8s/step
…
': {'type': 'band', 'image_height': 168, 'image_width': 224, 'channels': 3, 'train_dir': 'F:\\Lab\\datasets\\nd-iris\\train.tfrecord', 'eval_dir': 'F:\\Lab\\datasets\\nd-iris\\test.tfrecord', 'labels': 'F:\\Lab\\nfs\\base-notredame\\nir_labels_', 'randaugment': True, 'randaugment_layers': 2, 'randaugment_magnitude': 12}}
Number of devices: 2
Model: "sequential_12"
_________________________________________________________________
 Layer (type)                Output Shape              Param #   
=================================================================
 inception_v3 (Functional)   (None, 3, 5, 2048)        21802784  
                                                                 
 global_average_pooling2d_12  (None, 2048)             0         
  (GlobalAveragePooling2D)                                       
                                                                 
 dense_24 (Dense)            (None, 1024)              2098176   
                                                                 
 batch_normalization_407 (Ba  (None, 1024)             4096      
 tchNormalization)                                               
                                                                 
 dropout_12 (Dropout)        (None, 1024)              0         
                                                                 
 activation_403 (Activation)  (None, 1024)             0         
                                                                 
 dense_25 (Dense)            (None, 2)                 2050      
                                                                 
=================================================================
Total params: 23,907,106
Trainable params: 2,102,274
Non-trainable params: 21,804,832
_________________________________________________________________
Loading weights : F:\Lab\nfs\base-ndiris\checkpoints\InceptionV3_Notredame_band_aug_gender_base_F50M50.hdf5
Model: "sequential_12"
_________________________________________________________________
 Layer (type)                Output Shape              Param #   
=================================================================
 inception_v3 (Functional)   (None, 3, 5, 2048)        21802784  
                                                                 
 global_average_pooling2d_12  (None, 2048)             0         
  (GlobalAveragePooling2D)                                       
                                                                 
 dense_24 (Dense)            (None, 1024)              2098176   
                                                                 
 batch_normalization_407 (Ba  (None, 1024)             4096      
 tchNormalization)                                               
                                                                 
 dropout_12 (Dropout)        (None, 1024)              0         
                                                                 
 activation_403 (Activation)  (None, 1024)             0         
                                                                 
 dense_25 (Dense)            (None, 2)                 2050      
                                                                 
=================================================================
Total params: 23,907,106
Trainable params: 23,870,626
Non-trainable params: 36,480
_________________________________________________________________
Image shape:  (168, 224, 3)
Label:  1
Image shape:  (168, 224, 3)
Label:  1
Epoch 1/1000
124/124 - 908s - loss: 0.2958 - accuracy: 0.8904 - val_loss: 1.1722 - val_accuracy: 0.4698 - 908s/epoch - 7s/step
…
: {'type': 'band', 'image_height': 168, 'image_width': 224, 'channels': 3, 'train_dir': 'F:\\Lab\\datasets\\nd-iris\\train.tfrecord', 'eval_dir': 'F:\\Lab\\datasets\\nd-iris\\test.tfrecord', 'labels': 'F:\\Lab\\nfs\\base-notredame\\nir_labels_', 'randaugment': True, 'randaugment_layers': 2, 'randaugment_magnitude': 12}}
Number of devices: 2
Model: "sequential_13"
_________________________________________________________________
 Layer (type)                Output Shape              Param #   
=================================================================
 inception_resnet_v2 (Functi  (None, 3, 5, 1536)       54336736  
 onal)                                                           
                                                                 
 global_average_pooling2d_13  (None, 1536)             0         
  (GlobalAveragePooling2D)                                       
                                                                 
 dense_26 (Dense)            (None, 1024)              1573888   
                                                                 
 batch_normalization_611 (Ba  (None, 1024)             4096      
 tchNormalization)                                               
                                                                 
 dropout_13 (Dropout)        (None, 1024)              0         
                                                                 
 activation_607 (Activation)  (None, 1024)             0         
                                                                 
 dense_27 (Dense)            (None, 2)                 2050      
                                                                 
=================================================================
Total params: 55,916,770
Trainable params: 1,577,986
Non-trainable params: 54,338,784
_________________________________________________________________
Loading weights : F:\Lab\nfs\base-ndiris\checkpoints\InceptionResNetV2_Notredame_band_aug_gender_base_F50M50.hdf5
Model: "sequential_13"
_________________________________________________________________
 Layer (type)                Output Shape              Param #   
=================================================================
 inception_resnet_v2 (Functi  (None, 3, 5, 1536)       54336736  
 onal)                                                           
                                                                 
 global_average_pooling2d_13  (None, 1536)             0         
  (GlobalAveragePooling2D)                                       
                                                                 
 dense_26 (Dense)            (None, 1024)              1573888   
                                                                 
 batch_normalization_611 (Ba  (None, 1024)             4096      
 tchNormalization)                                               
                                                                 
 dropout_13 (Dropout)        (None, 1024)              0         
                                                                 
 activation_607 (Activation)  (None, 1024)             0         
                                                                 
 dense_27 (Dense)            (None, 2)                 2050      
                                                                 
=================================================================
Total params: 55,916,770
Trainable params: 55,854,178
Non-trainable params: 62,592
_________________________________________________________________
Image shape:  (168, 224, 3)
Label:  1
Image shape:  (168, 224, 3)
Label:  1
Epoch 1/1000
124/124 - 1175s - loss: 0.2813 - accuracy: 0.8734 - val_loss: 0.7348 - val_accuracy: 0.5102 - 1175s/epoch - 9s/step
…
': {'type': 'band', 'image_height': 168, 'image_width': 224, 'channels': 3, 'train_dir': 'F:\\Lab\\datasets\\nd-iris\\train.tfrecord', 'eval_dir': 'F:\\Lab\\datasets\\nd-iris\\test.tfrecord', 'labels': 'F:\\Lab\\nfs\\base-notredame\\nir_labels_', 'randaugment': True, 'randaugment_layers': 2, 'randaugment_magnitude': 12}}
Number of devices: 2
Model: "sequential_14"
_________________________________________________________________
 Layer (type)                Output Shape              Param #   
=================================================================
 resnet50 (Functional)       (None, 6, 7, 2048)        23587712  
                                                                 
 global_average_pooling2d_14  (None, 2048)             0         
  (GlobalAveragePooling2D)                                       
                                                                 
 dense_28 (Dense)            (None, 1024)              2098176   
                                                                 
 batch_normalization_612 (Ba  (None, 1024)             4096      
 tchNormalization)                                               
                                                                 
 dropout_14 (Dropout)        (None, 1024)              0         
                                                                 
 activation_608 (Activation)  (None, 1024)             0         
                                                                 
 dense_29 (Dense)            (None, 2)                 2050      
                                                                 
=================================================================
Total params: 25,692,034
Trainable params: 2,102,274
Non-trainable params: 23,589,760
_________________________________________________________________
Loading weights : F:\Lab\nfs\base-ndiris\checkpoints\ResNet50_Notredame_band_aug_gender_base_F50M50.hdf5
Model: "sequential_14"
_________________________________________________________________
 Layer (type)                Output Shape              Param #   
=================================================================
 resnet50 (Functional)       (None, 6, 7, 2048)        23587712  
                                                                 
 global_average_pooling2d_14  (None, 2048)             0         
  (GlobalAveragePooling2D)                                       
                                                                 
 dense_28 (Dense)            (None, 1024)              2098176   
                                                                 
 batch_normalization_612 (Ba  (None, 1024)             4096      
 tchNormalization)                                               
                                                                 
 dropout_14 (Dropout)        (None, 1024)              0         
                                                                 
 activation_608 (Activation)  (None, 1024)             0         
                                                                 
 dense_29 (Dense)            (None, 2)                 2050      
                                                                 
=================================================================
Total params: 25,692,034
Trainable params: 25,636,866
Non-trainable params: 55,168
_________________________________________________________________
Image shape:  (168, 224, 3)
Label:  1
Image shape:  (168, 224, 3)
Label:  1
Epoch 1/1000
124/124 - 1249s - loss: 0.2583 - accuracy: 0.9294 - val_loss: 1.0611 - val_accuracy: 0.5254 - 1249s/epoch - 10s/step
…
': {'type': 'band', 'image_height': 168, 'image_width': 224, 'channels': 3, 'train_dir': 'F:\\Lab\\datasets\\nd-iris\\train.tfrecord', 'eval_dir': 'F:\\Lab\\datasets\\nd-iris\\test.tfrecord', 'labels': 'F:\\Lab\\nfs\\base-notredame\\nir_labels_', 'randaugment': True, 'randaugment_layers': 2, 'randaugment_magnitude': 12}}
Number of devices: 2
Model: "sequential_15"
_________________________________________________________________
 Layer (type)                Output Shape              Param #   
=================================================================
 vgg19 (Functional)          (None, 5, 7, 512)         20024384  
                                                                 
 global_average_pooling2d_15  (None, 512)              0         
  (GlobalAveragePooling2D)                                       
                                                                 
 dense_30 (Dense)            (None, 1024)              525312    
                                                                 
 batch_normalization_613 (Ba  (None, 1024)             4096      
 tchNormalization)                                               
                                                                 
 dropout_15 (Dropout)        (None, 1024)              0         
                                                                 
 activation_609 (Activation)  (None, 1024)             0         
                                                                 
 dense_31 (Dense)            (None, 2)                 2050      
                                                                 
=================================================================
Total params: 20,555,842
Trainable params: 529,410
Non-trainable params: 20,026,432
_________________________________________________________________
Loading weights : F:\Lab\nfs\base-ndiris\checkpoints\VGG19_Notredame_band_aug_gender_base_F50M50.hdf5
Model: "sequential_15"
_________________________________________________________________
 Layer (type)                Output Shape              Param #   
=================================================================
 vgg19 (Functional)          (None, 5, 7, 512)         20024384  
                                                                 
 global_average_pooling2d_15  (None, 512)              0         
  (GlobalAveragePooling2D)                                       
                                                                 
 dense_30 (Dense)            (None, 1024)              525312    
                                                                 
 batch_normalization_613 (Ba  (None, 1024)             4096      
 tchNormalization)                                               
                                                                 
 dropout_15 (Dropout)        (None, 1024)              0         
                                                                 
 activation_609 (Activation)  (None, 1024)             0         
                                                                 
 dense_31 (Dense)            (None, 2)                 2050      
                                                                 
=================================================================
Total params: 20,555,842
Trainable params: 20,553,794
Non-trainable params: 2,048
_________________________________________________________________
Image shape:  (168, 224, 3)
Label:  1
Image shape:  (168, 224, 3)
Label:  1
Epoch 1/1000
124/124 - 2140s - loss: nan - accuracy: 0.5234 - val_loss: nan - val_accuracy: 0.5000 - 2140s/epoch - 17s/step
…
': {'type': 'band', 'image_height': 168, 'image_width': 224, 'channels': 3, 'train_dir': 'F:\\Lab\\datasets\\nd-iris\\train.tfrecord', 'eval_dir': 'F:\\Lab\\datasets\\nd-iris\\test.tfrecord', 'labels': 'F:\\Lab\\nfs\\base-notredame\\nir_labels_', 'randaugment': True, 'randaugment_layers': 2, 'randaugment_magnitude': 12}}
Number of devices: 2
Model: "sequential_16"
_________________________________________________________________
 Layer (type)                Output Shape              Param #   
=================================================================
 xception (Functional)       (None, 6, 7, 2048)        20861480  
                                                                 
 global_average_pooling2d_16  (None, 2048)             0         
  (GlobalAveragePooling2D)                                       
                                                                 
 dense_32 (Dense)            (None, 1024)              2098176   
                                                                 
 batch_normalization_618 (Ba  (None, 1024)             4096      
 tchNormalization)                                               
                                                                 
 dropout_16 (Dropout)        (None, 1024)              0         
                                                                 
 activation_610 (Activation)  (None, 1024)             0         
                                                                 
 dense_33 (Dense)            (None, 2)                 2050      
                                                                 
=================================================================
Total params: 22,965,802
Trainable params: 2,102,274
Non-trainable params: 20,863,528
_________________________________________________________________
Loading weights : F:\Lab\nfs\base-ndiris\checkpoints\Xception_Notredame_band_aug_gender_base_F50M50.hdf5
Model: "sequential_16"
_________________________________________________________________
 Layer (type)                Output Shape              Param #   
=================================================================
 xception (Functional)       (None, 6, 7, 2048)        20861480  
                                                                 
 global_average_pooling2d_16  (None, 2048)             0         
  (GlobalAveragePooling2D)                                       
                                                                 
 dense_32 (Dense)            (None, 1024)              2098176   
                                                                 
 batch_normalization_618 (Ba  (None, 1024)             4096      
 tchNormalization)                                               
                                                                 
 dropout_16 (Dropout)        (None, 1024)              0         
                                                                 
 activation_610 (Activation)  (None, 1024)             0         
                                                                 
 dense_33 (Dense)            (None, 2)                 2050      
                                                                 
=================================================================
Total params: 22,965,802
Trainable params: 22,909,226
Non-trainable params: 56,576
_________________________________________________________________
Image shape:  (168, 224, 3)
Label:  1
Image shape:  (168, 224, 3)
Label:  1
Epoch 1/1000
124/124 - 1164s - loss: 0.2946 - accuracy: 0.9025 - val_loss: 1.1636 - val_accuracy: 0.4927 - 1164s/epoch - 9s/step
…
: {'type': 'band', 'image_height': 168, 'image_width': 224, 'channels': 3, 'train_dir': 'F:\\Lab\\datasets\\nd-iris\\train.tfrecord', 'eval_dir': 'F:\\Lab\\datasets\\nd-iris\\test.tfrecord', 'labels': 'F:\\Lab\\nfs\\base-notredame\\nir_labels_', 'randaugment': True, 'randaugment_layers': 2, 'randaugment_magnitude': 12}}
Number of devices: 2
Model: "sequential_17"
_________________________________________________________________
 Layer (type)                Output Shape              Param #   
=================================================================
 efficientnetb0 (Functional)  (None, 6, 7, 1280)       4049571   
                                                                 
 global_average_pooling2d_17  (None, 1280)             0         
  (GlobalAveragePooling2D)                                       
                                                                 
 dense_34 (Dense)            (None, 1024)              1311744   
                                                                 
 batch_normalization_619 (Ba  (None, 1024)             4096      
 tchNormalization)                                               
                                                                 
 dropout_17 (Dropout)        (None, 1024)              0         
                                                                 
 activation_611 (Activation)  (None, 1024)             0         
                                                                 
 dense_35 (Dense)            (None, 2)                 2050      
                                                                 
=================================================================
Total params: 5,367,461
Trainable params: 1,315,842
Non-trainable params: 4,051,619
_________________________________________________________________
Loading weights : F:\Lab\nfs\base-ndiris\checkpoints\EfficientNetB0_Notredame_band_aug_gender_base_F50M50.hdf5
Model: "sequential_17"
_________________________________________________________________
 Layer (type)                Output Shape              Param #   
=================================================================
 efficientnetb0 (Functional)  (None, 6, 7, 1280)       4049571   
                                                                 
 global_average_pooling2d_17  (None, 1280)             0         
  (GlobalAveragePooling2D)                                       
                                                                 
 dense_34 (Dense)            (None, 1024)              1311744   
                                                                 
 batch_normalization_619 (Ba  (None, 1024)             4096      
 tchNormalization)                                               
                                                                 
 dropout_17 (Dropout)        (None, 1024)              0         
                                                                 
 activation_611 (Activation)  (None, 1024)             0         
                                                                 
 dense_35 (Dense)            (None, 2)                 2050      
                                                                 
=================================================================
Total params: 5,367,461
Trainable params: 5,323,390
Non-trainable params: 44,071
_________________________________________________________________
Image shape:  (168, 224, 3)
Label:  1
Image shape:  (168, 224, 3)
Label:  1
Epoch 1/1000
124/124 - 1032s - loss: 0.5229 - accuracy: 0.8666 - val_loss: 1.9475 - val_accuracy: 0.5000 - 1032s/epoch - 8s/step
…
