…
004.hdf5', 'pretrained_epoch': 15}, 'input': {'type': 'left', 'image_height': 160, 'image_width': 240, 'channels': 3, 'train_dir': 'F:\\Lab\\datasets\\visob', 'eval_dir': 'F:\\Lab\\datasets\\visob', 'labels': 'F:\\Lab\\datasets\\visob\\gender.json', 'randaugment': True, 'randaugment_layers': 2, 'randaugment_magnitude': 12}}
Number of devices: 2
Model: "sequential"
_________________________________________________________________
Layer (type)                 Output Shape              Param #   
=================================================================
efficientnetb4 (Functional)  (None, 5, 8, 1792)        17673823  
_________________________________________________________________
global_average_pooling2d (Gl (None, 1792)              0         
_________________________________________________________________
dense (Dense)                (None, 1024)              1836032   
_________________________________________________________________
batch_normalization (BatchNo (None, 1024)              4096      
_________________________________________________________________
dropout (Dropout)            (None, 1024)              0         
_________________________________________________________________
activation (Activation)      (None, 1024)              0         
_________________________________________________________________
dense_1 (Dense)              (None, 1)                 1025      
=================================================================
Total params: 19,514,976
Trainable params: 1,839,105
Non-trainable params: 17,675,871
_________________________________________________________________
{'1141': 0, '1142': 1, '1144': 1, '1147': 0, '1148': 0, '1149': 0, '1151': 1, '1152': 1, '1153': 1, '1154': 1, '1155': 1, '1156': 1, '1157': 1, '1158': 0, '1159': 1, '11
…
4.hdf5', 'pretrained_epoch': 15}, 'input': {'type': 'left', 'image_height': 160, 'image_width': 240, 'channels': 3, 'train_dir': 'F:\\Lab\\datasets\\visob', 'eval_dir': 'F:\\Lab\\datasets\\visob', 'labels': 'F:\\Lab\\datasets\\visob\\gender.json', 'randaugment': True, 'randaugment_layers': 2, 'randaugment_magnitude': 12}}
Number of devices: 2
Model: "sequential_1"
_________________________________________________________________
Layer (type)                 Output Shape              Param #   
=================================================================
densenet121 (Functional)     (None, 5, 7, 1024)        7037504   
_________________________________________________________________
global_average_pooling2d_1 ( (None, 1024)              0         
_________________________________________________________________
dense_2 (Dense)              (None, 1024)              1049600   
_________________________________________________________________
batch_normalization_1 (Batch (None, 1024)              4096      
_________________________________________________________________
dropout_1 (Dropout)          (None, 1024)              0         
_________________________________________________________________
activation_1 (Activation)    (None, 1024)              0         
_________________________________________________________________
dense_3 (Dense)              (None, 1)                 1025      
=================================================================
Total params: 8,092,225
Trainable params: 1,052,673
Non-trainable params: 7,039,552
_________________________________________________________________
{'1141': 0, '1142': 1, '1144': 1, '1147': 0, '1148': 0, '1149': 0, '1151': 1, '1152': 1, '1153': 1, '1154': 1, '1155': 1, '1156': 1, '1157': 1, '1158': 0, '1159': 1, '1160
…
4.hdf5', 'pretrained_epoch': 15}, 'input': {'type': 'left', 'image_height': 160, 'image_width': 240, 'channels': 3, 'train_dir': 'F:\\Lab\\datasets\\visob', 'eval_dir': 'F:\\Lab\\datasets\\visob', 'labels': 'F:\\Lab\\datasets\\visob\\gender.json', 'randaugment': True, 'randaugment_layers': 2, 'randaugment_magnitude': 12}}
Number of devices: 2
Model: "sequential_2"
_________________________________________________________________
Layer (type)                 Output Shape              Param #   
=================================================================
mobilenetv2_1.00_224 (Functi (None, 5, 8, 1280)        2257984   
_________________________________________________________________
global_average_pooling2d_2 ( (None, 1280)              0         
_________________________________________________________________
dense_4 (Dense)              (None, 1024)              1311744   
_________________________________________________________________
batch_normalization_2 (Batch (None, 1024)              4096      
_________________________________________________________________
dropout_2 (Dropout)          (None, 1024)              0         
_________________________________________________________________
activation_2 (Activation)    (None, 1024)              0         
_________________________________________________________________
dense_5 (Dense)              (None, 1)                 1025      
=================================================================
Total params: 3,574,849
Trainable params: 1,314,817
Non-trainable params: 2,260,032
_________________________________________________________________
{'1141': 0, '1142': 1, '1144': 1, '1147': 0, '1148': 0, '1149': 0, '1151': 1, '1152': 1, '1153': 1, '1154': 1, '1155': 1, '1156': 1, '1157': 1, '1158': 0, '1159': 1, '1160
…
4.hdf5', 'pretrained_epoch': 15}, 'input': {'type': 'left', 'image_height': 160, 'image_width': 240, 'channels': 3, 'train_dir': 'F:\\Lab\\datasets\\visob', 'eval_dir': 'F:\\Lab\\datasets\\visob', 'labels': 'F:\\Lab\\datasets\\visob\\gender.json', 'randaugment': True, 'randaugment_layers': 2, 'randaugment_magnitude': 12}}
Number of devices: 2
Model: "sequential_3"
_________________________________________________________________
Layer (type)                 Output Shape              Param #   
=================================================================
inception_v3 (Functional)    (None, 3, 6, 2048)        21802784  
_________________________________________________________________
global_average_pooling2d_3 ( (None, 2048)              0         
_________________________________________________________________
dense_6 (Dense)              (None, 1024)              2098176   
_________________________________________________________________
batch_normalization_97 (Batc (None, 1024)              4096      
_________________________________________________________________
dropout_3 (Dropout)          (None, 1024)              0         
_________________________________________________________________
activation_97 (Activation)   (None, 1024)              0         
_________________________________________________________________
dense_7 (Dense)              (None, 1)                 1025      
=================================================================
Total params: 23,906,081
Trainable params: 2,101,249
Non-trainable params: 21,804,832
_________________________________________________________________
{'1141': 0, '1142': 1, '1144': 1, '1147': 0, '1148': 0, '1149': 0, '1151': 1, '1152': 1, '1153': 1, '1154': 1, '1155': 1, '1156': 1, '1157': 1, '1158': 0, '1159': 1, '11
…
4.hdf5', 'pretrained_epoch': 15}, 'input': {'type': 'left', 'image_height': 160, 'image_width': 240, 'channels': 3, 'train_dir': 'F:\\Lab\\datasets\\visob', 'eval_dir': 'F:\\Lab\\datasets\\visob', 'labels': 'F:\\Lab\\datasets\\visob\\gender.json', 'randaugment': True, 'randaugment_layers': 2, 'randaugment_magnitude': 12}}
Number of devices: 2
Model: "sequential_4"
_________________________________________________________________
Layer (type)                 Output Shape              Param #   
=================================================================
inception_resnet_v2 (Functio (None, 3, 6, 1536)        54336736  
_________________________________________________________________
global_average_pooling2d_4 ( (None, 1536)              0         
_________________________________________________________________
dense_8 (Dense)              (None, 1024)              1573888   
_________________________________________________________________
batch_normalization_301 (Bat (None, 1024)              4096      
_________________________________________________________________
dropout_4 (Dropout)          (None, 1024)              0         
_________________________________________________________________
activation_301 (Activation)  (None, 1024)              0         
_________________________________________________________________
dense_9 (Dense)              (None, 1)                 1025      
=================================================================
Total params: 55,915,745
Trainable params: 1,576,961
Non-trainable params: 54,338,784
_________________________________________________________________
{'1141': 0, '1142': 1, '1144': 1, '1147': 0, '1148': 0, '1149': 0, '1151': 1, '1152': 1, '1153': 1, '1154': 1, '1155': 1, '1156': 1, '1157': 1, '1158': 0, '1159': 1, '11
…
4.hdf5', 'pretrained_epoch': 15}, 'input': {'type': 'left', 'image_height': 160, 'image_width': 240, 'channels': 3, 'train_dir': 'F:\\Lab\\datasets\\visob', 'eval_dir': 'F:\\Lab\\datasets\\visob', 'labels': 'F:\\Lab\\datasets\\visob\\gender.json', 'randaugment': True, 'randaugment_layers': 2, 'randaugment_magnitude': 12}}
Number of devices: 2
Model: "sequential_5"
_________________________________________________________________
Layer (type)                 Output Shape              Param #   
=================================================================
resnet50 (Functional)        (None, 5, 8, 2048)        23587712  
_________________________________________________________________
global_average_pooling2d_5 ( (None, 2048)              0         
_________________________________________________________________
dense_10 (Dense)             (None, 1024)              2098176   
_________________________________________________________________
batch_normalization_302 (Bat (None, 1024)              4096      
_________________________________________________________________
dropout_5 (Dropout)          (None, 1024)              0         
_________________________________________________________________
activation_302 (Activation)  (None, 1024)              0         
_________________________________________________________________
dense_11 (Dense)             (None, 1)                 1025      
=================================================================
Total params: 25,691,009
Trainable params: 2,101,249
Non-trainable params: 23,589,760
_________________________________________________________________
{'1141': 0, '1142': 1, '1144': 1, '1147': 0, '1148': 0, '1149': 0, '1151': 1, '1152': 1, '1153': 1, '1154': 1, '1155': 1, '1156': 1, '1157': 1, '1158': 0, '1159': 1, '11
…
4.hdf5', 'pretrained_epoch': 15}, 'input': {'type': 'left', 'image_height': 160, 'image_width': 240, 'channels': 3, 'train_dir': 'F:\\Lab\\datasets\\visob', 'eval_dir': 'F:\\Lab\\datasets\\visob', 'labels': 'F:\\Lab\\datasets\\visob\\gender.json', 'randaugment': True, 'randaugment_layers': 2, 'randaugment_magnitude': 12}}
Number of devices: 2
Model: "sequential_6"
_________________________________________________________________
Layer (type)                 Output Shape              Param #   
=================================================================
vgg19 (Functional)           (None, 5, 7, 512)         20024384  
_________________________________________________________________
global_average_pooling2d_6 ( (None, 512)               0         
_________________________________________________________________
dense_12 (Dense)             (None, 1024)              525312    
_________________________________________________________________
batch_normalization_303 (Bat (None, 1024)              4096      
_________________________________________________________________
dropout_6 (Dropout)          (None, 1024)              0         
_________________________________________________________________
activation_303 (Activation)  (None, 1024)              0         
_________________________________________________________________
dense_13 (Dense)             (None, 1)                 1025      
=================================================================
Total params: 20,554,817
Trainable params: 528,385
Non-trainable params: 20,026,432
_________________________________________________________________
{'1141': 0, '1142': 1, '1144': 1, '1147': 0, '1148': 0, '1149': 0, '1151': 1, '1152': 1, '1153': 1, '1154': 1, '1155': 1, '1156': 1, '1157': 1, '1158': 0, '1159': 1, '1160
…
4.hdf5', 'pretrained_epoch': 15}, 'input': {'type': 'left', 'image_height': 160, 'image_width': 240, 'channels': 3, 'train_dir': 'F:\\Lab\\datasets\\visob', 'eval_dir': 'F:\\Lab\\datasets\\visob', 'labels': 'F:\\Lab\\datasets\\visob\\gender.json', 'randaugment': True, 'randaugment_layers': 2, 'randaugment_magnitude': 12}}
Number of devices: 2
Model: "sequential_7"
_________________________________________________________________
Layer (type)                 Output Shape              Param #   
=================================================================
xception (Functional)        (None, 5, 8, 2048)        20861480  
_________________________________________________________________
global_average_pooling2d_7 ( (None, 2048)              0         
_________________________________________________________________
dense_14 (Dense)             (None, 1024)              2098176   
_________________________________________________________________
batch_normalization_308 (Bat (None, 1024)              4096      
_________________________________________________________________
dropout_7 (Dropout)          (None, 1024)              0         
_________________________________________________________________
activation_304 (Activation)  (None, 1024)              0         
_________________________________________________________________
dense_15 (Dense)             (None, 1)                 1025      
=================================================================
Total params: 22,964,777
Trainable params: 2,101,249
Non-trainable params: 20,863,528
_________________________________________________________________
{'1141': 0, '1142': 1, '1144': 1, '1147': 0, '1148': 0, '1149': 0, '1151': 1, '1152': 1, '1153': 1, '1154': 1, '1155': 1, '1156': 1, '1157': 1, '1158': 0, '1159': 1, '11
…
4.hdf5', 'pretrained_epoch': 15}, 'input': {'type': 'left', 'image_height': 160, 'image_width': 240, 'channels': 3, 'train_dir': 'F:\\Lab\\datasets\\visob', 'eval_dir': 'F:\\Lab\\datasets\\visob', 'labels': 'F:\\Lab\\datasets\\visob\\gender.json', 'randaugment': True, 'randaugment_layers': 2, 'randaugment_magnitude': 12}}
Number of devices: 2
Model: "sequential_8"
_________________________________________________________________
Layer (type)                 Output Shape              Param #   
=================================================================
efficientnetb0 (Functional)  (None, 5, 8, 1280)        4049571   
_________________________________________________________________
global_average_pooling2d_8 ( (None, 1280)              0         
_________________________________________________________________
dense_16 (Dense)             (None, 1024)              1311744   
_________________________________________________________________
batch_normalization_309 (Bat (None, 1024)              4096      
_________________________________________________________________
dropout_8 (Dropout)          (None, 1024)              0         
_________________________________________________________________
activation_305 (Activation)  (None, 1024)              0         
_________________________________________________________________
dense_17 (Dense)             (None, 1)                 1025      
=================================================================
Total params: 5,366,436
Trainable params: 1,314,817
Non-trainable params: 4,051,619
_________________________________________________________________
{'1141': 0, '1142': 1, '1144': 1, '1147': 0, '1148': 0, '1149': 0, '1151': 1, '1152': 1, '1153': 1, '1154': 1, '1155': 1, '1156': 1, '1157': 1, '1158': 0, '1159': 1, '1160
…
7.hdf5', 'pretrained_epoch': 15}, 'input': {'type': 'left', 'image_height': 160, 'image_width': 240, 'channels': 3, 'train_dir': 'F:\\Lab\\datasets\\visob', 'eval_dir': 'F:\\Lab\\datasets\\visob', 'labels': 'F:\\Lab\\datasets\\visob\\gender.json', 'randaugment': True, 'randaugment_layers': 2, 'randaugment_magnitude': 12}}
Number of devices: 2
Model: "sequential_9"
_________________________________________________________________
Layer (type)                 Output Shape              Param #   
=================================================================
efficientnetb4 (Functional)  (None, 5, 8, 1792)        17673823  
_________________________________________________________________
global_average_pooling2d_9 ( (None, 1792)              0         
_________________________________________________________________
dense_18 (Dense)             (None, 1024)              1836032   
_________________________________________________________________
batch_normalization_310 (Bat (None, 1024)              4096      
_________________________________________________________________
dropout_9 (Dropout)          (None, 1024)              0         
_________________________________________________________________
activation_306 (Activation)  (None, 1024)              0         
_________________________________________________________________
dense_19 (Dense)             (None, 1)                 1025      
=================================================================
Total params: 19,514,976
Trainable params: 1,839,105
Non-trainable params: 17,675,871
_________________________________________________________________
Loading weights : F:\Lab\nfs\base-visob\checkpoints\EfficientNetB4_VISOB_left_aug_gender_base_F75M25.24-0.3097.hdf5
Model: "sequential_9"
_________________________________________________________________
Layer (type)                 Output Shape              Param #   
=================================================================
efficientnetb4 (Functional)  (None, 5, 8, 1792)        17673823  
_________________________________________________________________
global_average_pooling2d_9 ( (None, 1792)              0         
_________________________________________________________________
dense_18 (Dense)             (None, 1024)              1836032   
_________________________________________________________________
batch_normalization_310 (Bat (None, 1024)              4096      
_________________________________________________________________
dropout_9 (Dropout)          (None, 1024)              0         
_________________________________________________________________
activation_306 (Activation)  (None, 1024)              0         
_________________________________________________________________
dense_19 (Dense)             (None, 1)                 1025      
=================================================================
Total params: 19,514,976
Trainable params: 19,387,721
Non-trainable params: 127,255
_________________________________________________________________
{'1141': 0, '1142': 1, '1144': 1, '1147': 0, '1148': 0, '1149': 0, '1151': 1, '1152': 1, '1153': 1, '1154': 1, '1155': 1, '1156': 1, '1157': 1, '1158': 0, '1159': 1, '1160
…
.hdf5', 'pretrained_epoch': 15}, 'input': {'type': 'left', 'image_height': 160, 'image_width': 240, 'channels': 3, 'train_dir': 'F:\\Lab\\datasets\\visob', 'eval_dir': 'F:\\Lab\\datasets\\visob', 'labels': 'F:\\Lab\\datasets\\visob\\gender.json', 'randaugment': True, 'randaugment_layers': 2, 'randaugment_magnitude': 12}}
Number of devices: 2
Model: "sequential_10"
_________________________________________________________________
Layer (type)                 Output Shape              Param #   
=================================================================
densenet121 (Functional)     (None, 5, 7, 1024)        7037504   
_________________________________________________________________
global_average_pooling2d_10  (None, 1024)              0         
_________________________________________________________________
dense_20 (Dense)             (None, 1024)              1049600   
_________________________________________________________________
batch_normalization_311 (Bat (None, 1024)              4096      
_________________________________________________________________
dropout_10 (Dropout)         (None, 1024)              0         
_________________________________________________________________
activation_307 (Activation)  (None, 1024)              0         
_________________________________________________________________
dense_21 (Dense)             (None, 1)                 1025      
=================================================================
Total params: 8,092,225
Trainable params: 1,052,673
Non-trainable params: 7,039,552
_________________________________________________________________
Loading weights : F:\Lab\nfs\base-visob\checkpoints\DenseNet121_VISOB_left_aug_gender_base_F75M25.06-0.3507.hdf5
Model: "sequential_10"
_________________________________________________________________
Layer (type)                 Output Shape              Param #   
=================================================================
densenet121 (Functional)     (None, 5, 7, 1024)        7037504   
_________________________________________________________________
global_average_pooling2d_10  (None, 1024)              0         
_________________________________________________________________
dense_20 (Dense)             (None, 1024)              1049600   
_________________________________________________________________
batch_normalization_311 (Bat (None, 1024)              4096      
_________________________________________________________________
dropout_10 (Dropout)         (None, 1024)              0         
_________________________________________________________________
activation_307 (Activation)  (None, 1024)              0         
_________________________________________________________________
dense_21 (Dense)             (None, 1)                 1025      
=================================================================
Total params: 8,092,225
Trainable params: 8,006,529
Non-trainable params: 85,696
_________________________________________________________________
{'1141': 0, '1142': 1, '1144': 1, '1147': 0, '1148': 0, '1149': 0, '1151': 1, '1152': 1, '1153': 1, '1154': 1, '1155': 1, '1156': 1, '1157': 1, '1158': 0, '1159': 1, '1160': 
…
.hdf5', 'pretrained_epoch': 15}, 'input': {'type': 'left', 'image_height': 160, 'image_width': 240, 'channels': 3, 'train_dir': 'F:\\Lab\\datasets\\visob', 'eval_dir': 'F:\\Lab\\datasets\\visob', 'labels': 'F:\\Lab\\datasets\\visob\\gender.json', 'randaugment': True, 'randaugment_layers': 2, 'randaugment_magnitude': 12}}
Number of devices: 2
Model: "sequential_11"
_________________________________________________________________
Layer (type)                 Output Shape              Param #   
=================================================================
mobilenetv2_1.00_224 (Functi (None, 5, 8, 1280)        2257984   
_________________________________________________________________
global_average_pooling2d_11  (None, 1280)              0         
_________________________________________________________________
dense_22 (Dense)             (None, 1024)              1311744   
_________________________________________________________________
batch_normalization_312 (Bat (None, 1024)              4096      
_________________________________________________________________
dropout_11 (Dropout)         (None, 1024)              0         
_________________________________________________________________
activation_308 (Activation)  (None, 1024)              0         
_________________________________________________________________
dense_23 (Dense)             (None, 1)                 1025      
=================================================================
Total params: 3,574,849
Trainable params: 1,314,817
Non-trainable params: 2,260,032
_________________________________________________________________
Loading weights : F:\Lab\nfs\base-visob\checkpoints\MobileNetV2_VISOB_left_aug_gender_base_F75M25.05-0.3728.hdf5
Model: "sequential_11"
_________________________________________________________________
Layer (type)                 Output Shape              Param #   
=================================================================
mobilenetv2_1.00_224 (Functi (None, 5, 8, 1280)        2257984   
_________________________________________________________________
global_average_pooling2d_11  (None, 1280)              0         
_________________________________________________________________
dense_22 (Dense)             (None, 1024)              1311744   
_________________________________________________________________
batch_normalization_312 (Bat (None, 1024)              4096      
_________________________________________________________________
dropout_11 (Dropout)         (None, 1024)              0         
_________________________________________________________________
activation_308 (Activation)  (None, 1024)              0         
_________________________________________________________________
dense_23 (Dense)             (None, 1)                 1025      
=================================================================
Total params: 3,574,849
Trainable params: 3,538,689
Non-trainable params: 36,160
_________________________________________________________________
{'1141': 0, '1142': 1, '1144': 1, '1147': 0, '1148': 0, '1149': 0, '1151': 1, '1152': 1, '1153': 1, '1154': 1, '1155': 1, '1156': 1, '1157': 1, '1158': 0, '1159': 1, '1160': 
…
.hdf5', 'pretrained_epoch': 15}, 'input': {'type': 'left', 'image_height': 160, 'image_width': 240, 'channels': 3, 'train_dir': 'F:\\Lab\\datasets\\visob', 'eval_dir': 'F:\\Lab\\datasets\\visob', 'labels': 'F:\\Lab\\datasets\\visob\\gender.json', 'randaugment': True, 'randaugment_layers': 2, 'randaugment_magnitude': 12}}
Number of devices: 2
Model: "sequential_12"
_________________________________________________________________
Layer (type)                 Output Shape              Param #   
=================================================================
inception_v3 (Functional)    (None, 3, 6, 2048)        21802784  
_________________________________________________________________
global_average_pooling2d_12  (None, 2048)              0         
_________________________________________________________________
dense_24 (Dense)             (None, 1024)              2098176   
_________________________________________________________________
batch_normalization_407 (Bat (None, 1024)              4096      
_________________________________________________________________
dropout_12 (Dropout)         (None, 1024)              0         
_________________________________________________________________
activation_403 (Activation)  (None, 1024)              0         
_________________________________________________________________
dense_25 (Dense)             (None, 1)                 1025      
=================================================================
Total params: 23,906,081
Trainable params: 2,101,249
Non-trainable params: 21,804,832
_________________________________________________________________
Loading weights : F:\Lab\nfs\base-visob\checkpoints\InceptionV3_VISOB_left_aug_gender_base_F75M25.05-0.4422.hdf5
Model: "sequential_12"
_________________________________________________________________
Layer (type)                 Output Shape              Param #   
=================================================================
inception_v3 (Functional)    (None, 3, 6, 2048)        21802784  
_________________________________________________________________
global_average_pooling2d_12  (None, 2048)              0         
_________________________________________________________________
dense_24 (Dense)             (None, 1024)              2098176   
_________________________________________________________________
batch_normalization_407 (Bat (None, 1024)              4096      
_________________________________________________________________
dropout_12 (Dropout)         (None, 1024)              0         
_________________________________________________________________
activation_403 (Activation)  (None, 1024)              0         
_________________________________________________________________
dense_25 (Dense)             (None, 1)                 1025      
=================================================================
Total params: 23,906,081
Trainable params: 23,869,601
Non-trainable params: 36,480
_________________________________________________________________
{'1141': 0, '1142': 1, '1144': 1, '1147': 0, '1148': 0, '1149': 0, '1151': 1, '1152': 1, '1153': 1, '1154': 1, '1155': 1, '1156': 1, '1157': 1, '1158': 0, '1159': 1, '1160'
…
.hdf5', 'pretrained_epoch': 15}, 'input': {'type': 'left', 'image_height': 160, 'image_width': 240, 'channels': 3, 'train_dir': 'F:\\Lab\\datasets\\visob', 'eval_dir': 'F:\\Lab\\datasets\\visob', 'labels': 'F:\\Lab\\datasets\\visob\\gender.json', 'randaugment': True, 'randaugment_layers': 2, 'randaugment_magnitude': 12}}
Number of devices: 2
Model: "sequential_13"
_________________________________________________________________
Layer (type)                 Output Shape              Param #   
=================================================================
inception_resnet_v2 (Functio (None, 3, 6, 1536)        54336736  
_________________________________________________________________
global_average_pooling2d_13  (None, 1536)              0         
_________________________________________________________________
dense_26 (Dense)             (None, 1024)              1573888   
_________________________________________________________________
batch_normalization_611 (Bat (None, 1024)              4096      
_________________________________________________________________
dropout_13 (Dropout)         (None, 1024)              0         
_________________________________________________________________
activation_607 (Activation)  (None, 1024)              0         
_________________________________________________________________
dense_27 (Dense)             (None, 1)                 1025      
=================================================================
Total params: 55,915,745
Trainable params: 1,576,961
Non-trainable params: 54,338,784
_________________________________________________________________
Loading weights : F:\Lab\nfs\base-visob\checkpoints\InceptionResNetV2_VISOB_left_aug_gender_base_F75M25.03-0.4139.hdf5
Model: "sequential_13"
_________________________________________________________________
Layer (type)                 Output Shape              Param #   
=================================================================
inception_resnet_v2 (Functio (None, 3, 6, 1536)        54336736  
_________________________________________________________________
global_average_pooling2d_13  (None, 1536)              0         
_________________________________________________________________
dense_26 (Dense)             (None, 1024)              1573888   
_________________________________________________________________
batch_normalization_611 (Bat (None, 1024)              4096      
_________________________________________________________________
dropout_13 (Dropout)         (None, 1024)              0         
_________________________________________________________________
activation_607 (Activation)  (None, 1024)              0         
_________________________________________________________________
dense_27 (Dense)             (None, 1)                 1025      
=================================================================
Total params: 55,915,745
Trainable params: 55,853,153
Non-trainable params: 62,592
_________________________________________________________________
{'1141': 0, '1142': 1, '1144': 1, '1147': 0, '1148': 0, '1149': 0, '1151': 1, '1152': 1, '1153': 1, '1154': 1, '1155': 1, '1156': 1, '1157': 1, '1158': 0, '1159': 1, '1160'
…
.hdf5', 'pretrained_epoch': 15}, 'input': {'type': 'left', 'image_height': 160, 'image_width': 240, 'channels': 3, 'train_dir': 'F:\\Lab\\datasets\\visob', 'eval_dir': 'F:\\Lab\\datasets\\visob', 'labels': 'F:\\Lab\\datasets\\visob\\gender.json', 'randaugment': True, 'randaugment_layers': 2, 'randaugment_magnitude': 12}}
Number of devices: 2
Model: "sequential_14"
_________________________________________________________________
Layer (type)                 Output Shape              Param #   
=================================================================
resnet50 (Functional)        (None, 5, 8, 2048)        23587712  
_________________________________________________________________
global_average_pooling2d_14  (None, 2048)              0         
_________________________________________________________________
dense_28 (Dense)             (None, 1024)              2098176   
_________________________________________________________________
batch_normalization_612 (Bat (None, 1024)              4096      
_________________________________________________________________
dropout_14 (Dropout)         (None, 1024)              0         
_________________________________________________________________
activation_608 (Activation)  (None, 1024)              0         
_________________________________________________________________
dense_29 (Dense)             (None, 1)                 1025      
=================================================================
Total params: 25,691,009
Trainable params: 2,101,249
Non-trainable params: 23,589,760
_________________________________________________________________
Loading weights : F:\Lab\nfs\base-visob\checkpoints\ResNet50_VISOB_left_aug_gender_base_F75M25.07-0.3339.hdf5
Model: "sequential_14"
_________________________________________________________________
Layer (type)                 Output Shape              Param #   
=================================================================
resnet50 (Functional)        (None, 5, 8, 2048)        23587712  
_________________________________________________________________
global_average_pooling2d_14  (None, 2048)              0         
_________________________________________________________________
dense_28 (Dense)             (None, 1024)              2098176   
_________________________________________________________________
batch_normalization_612 (Bat (None, 1024)              4096      
_________________________________________________________________
dropout_14 (Dropout)         (None, 1024)              0         
_________________________________________________________________
activation_608 (Activation)  (None, 1024)              0         
_________________________________________________________________
dense_29 (Dense)             (None, 1)                 1025      
=================================================================
Total params: 25,691,009
Trainable params: 25,635,841
Non-trainable params: 55,168
_________________________________________________________________
{'1141': 0, '1142': 1, '1144': 1, '1147': 0, '1148': 0, '1149': 0, '1151': 1, '1152': 1, '1153': 1, '1154': 1, '1155': 1, '1156': 1, '1157': 1, '1158': 0, '1159': 1, '1160'
…
.hdf5', 'pretrained_epoch': 15}, 'input': {'type': 'left', 'image_height': 160, 'image_width': 240, 'channels': 3, 'train_dir': 'F:\\Lab\\datasets\\visob', 'eval_dir': 'F:\\Lab\\datasets\\visob', 'labels': 'F:\\Lab\\datasets\\visob\\gender.json', 'randaugment': True, 'randaugment_layers': 2, 'randaugment_magnitude': 12}}
Number of devices: 2
Model: "sequential_15"
_________________________________________________________________
Layer (type)                 Output Shape              Param #   
=================================================================
vgg19 (Functional)           (None, 5, 7, 512)         20024384  
_________________________________________________________________
global_average_pooling2d_15  (None, 512)               0         
_________________________________________________________________
dense_30 (Dense)             (None, 1024)              525312    
_________________________________________________________________
batch_normalization_613 (Bat (None, 1024)              4096      
_________________________________________________________________
dropout_15 (Dropout)         (None, 1024)              0         
_________________________________________________________________
activation_609 (Activation)  (None, 1024)              0         
_________________________________________________________________
dense_31 (Dense)             (None, 1)                 1025      
=================================================================
Total params: 20,554,817
Trainable params: 528,385
Non-trainable params: 20,026,432
_________________________________________________________________
Loading weights : F:\Lab\nfs\base-visob\checkpoints\VGG19_VISOB_left_aug_gender_base_F75M25.15-0.3294.hdf5
Model: "sequential_15"
_________________________________________________________________
Layer (type)                 Output Shape              Param #   
=================================================================
vgg19 (Functional)           (None, 5, 7, 512)         20024384  
_________________________________________________________________
global_average_pooling2d_15  (None, 512)               0         
_________________________________________________________________
dense_30 (Dense)             (None, 1024)              525312    
_________________________________________________________________
batch_normalization_613 (Bat (None, 1024)              4096      
_________________________________________________________________
dropout_15 (Dropout)         (None, 1024)              0         
_________________________________________________________________
activation_609 (Activation)  (None, 1024)              0         
_________________________________________________________________
dense_31 (Dense)             (None, 1)                 1025      
=================================================================
Total params: 20,554,817
Trainable params: 20,552,769
Non-trainable params: 2,048
_________________________________________________________________
{'1141': 0, '1142': 1, '1144': 1, '1147': 0, '1148': 0, '1149': 0, '1151': 1, '1152': 1, '1153': 1, '1154': 1, '1155': 1, '1156': 1, '1157': 1, '1158': 0, '1159': 1, '1160':
…
.hdf5', 'pretrained_epoch': 15}, 'input': {'type': 'left', 'image_height': 160, 'image_width': 240, 'channels': 3, 'train_dir': 'F:\\Lab\\datasets\\visob', 'eval_dir': 'F:\\Lab\\datasets\\visob', 'labels': 'F:\\Lab\\datasets\\visob\\gender.json', 'randaugment': True, 'randaugment_layers': 2, 'randaugment_magnitude': 12}}
Number of devices: 2
Model: "sequential_16"
_________________________________________________________________
Layer (type)                 Output Shape              Param #   
=================================================================
xception (Functional)        (None, 5, 8, 2048)        20861480  
_________________________________________________________________
global_average_pooling2d_16  (None, 2048)              0         
_________________________________________________________________
dense_32 (Dense)             (None, 1024)              2098176   
_________________________________________________________________
batch_normalization_618 (Bat (None, 1024)              4096      
_________________________________________________________________
dropout_16 (Dropout)         (None, 1024)              0         
_________________________________________________________________
activation_610 (Activation)  (None, 1024)              0         
_________________________________________________________________
dense_33 (Dense)             (None, 1)                 1025      
=================================================================
Total params: 22,964,777
Trainable params: 2,101,249
Non-trainable params: 20,863,528
_________________________________________________________________
Loading weights : F:\Lab\nfs\base-visob\checkpoints\Xception_VISOB_left_aug_gender_base_F75M25.06-0.4203.hdf5
Model: "sequential_16"
_________________________________________________________________
Layer (type)                 Output Shape              Param #   
=================================================================
xception (Functional)        (None, 5, 8, 2048)        20861480  
_________________________________________________________________
global_average_pooling2d_16  (None, 2048)              0         
_________________________________________________________________
dense_32 (Dense)             (None, 1024)              2098176   
_________________________________________________________________
batch_normalization_618 (Bat (None, 1024)              4096      
_________________________________________________________________
dropout_16 (Dropout)         (None, 1024)              0         
_________________________________________________________________
activation_610 (Activation)  (None, 1024)              0         
_________________________________________________________________
dense_33 (Dense)             (None, 1)                 1025      
=================================================================
Total params: 22,964,777
Trainable params: 22,908,201
Non-trainable params: 56,576
_________________________________________________________________
{'1141': 0, '1142': 1, '1144': 1, '1147': 0, '1148': 0, '1149': 0, '1151': 1, '1152': 1, '1153': 1, '1154': 1, '1155': 1, '1156': 1, '1157': 1, '1158': 0, '1159': 1, '1160'
…
.hdf5', 'pretrained_epoch': 15}, 'input': {'type': 'left', 'image_height': 160, 'image_width': 240, 'channels': 3, 'train_dir': 'F:\\Lab\\datasets\\visob', 'eval_dir': 'F:\\Lab\\datasets\\visob', 'labels': 'F:\\Lab\\datasets\\visob\\gender.json', 'randaugment': True, 'randaugment_layers': 2, 'randaugment_magnitude': 12}}
Number of devices: 2
Model: "sequential_17"
_________________________________________________________________
Layer (type)                 Output Shape              Param #   
=================================================================
efficientnetb0 (Functional)  (None, 5, 8, 1280)        4049571   
_________________________________________________________________
global_average_pooling2d_17  (None, 1280)              0         
_________________________________________________________________
dense_34 (Dense)             (None, 1024)              1311744   
_________________________________________________________________
batch_normalization_619 (Bat (None, 1024)              4096      
_________________________________________________________________
dropout_17 (Dropout)         (None, 1024)              0         
_________________________________________________________________
activation_611 (Activation)  (None, 1024)              0         
_________________________________________________________________
dense_35 (Dense)             (None, 1)                 1025      
=================================================================
Total params: 5,366,436
Trainable params: 1,314,817
Non-trainable params: 4,051,619
_________________________________________________________________
Loading weights : F:\Lab\nfs\base-visob\checkpoints\EfficientNetB0_VISOB_left_aug_gender_base_F75M25.13-0.2884.hdf5
Model: "sequential_17"
_________________________________________________________________
Layer (type)                 Output Shape              Param #   
=================================================================
efficientnetb0 (Functional)  (None, 5, 8, 1280)        4049571   
_________________________________________________________________
global_average_pooling2d_17  (None, 1280)              0         
_________________________________________________________________
dense_34 (Dense)             (None, 1024)              1311744   
_________________________________________________________________
batch_normalization_619 (Bat (None, 1024)              4096      
_________________________________________________________________
dropout_17 (Dropout)         (None, 1024)              0         
_________________________________________________________________
activation_611 (Activation)  (None, 1024)              0         
_________________________________________________________________
dense_35 (Dense)             (None, 1)                 1025      
=================================================================
Total params: 5,366,436
Trainable params: 5,322,365
Non-trainable params: 44,071
_________________________________________________________________
{'1141': 0, '1142': 1, '1144': 1, '1147': 0, '1148': 0, '1149': 0, '1151': 1, '1152': 1, '1153': 1, '1154': 1, '1155': 1, '1156': 1, '1157': 1, '1158': 0, '1159': 1, '1160': 
…
