…
 'pretrained_epoch': 15}, 'input': {'type': 'right', 'image_height': 168, 'image_width': 224, 'channels': 3, 'train_dir': 'F:\\Lab\\datasets\\nd-iris\\data', 'eval_dir': 'F:\\Lab\\datasets\\nd-iris\\data', 'labels': 'F:\\Lab\\datasets\\nd-iris\\\\', 'randaugment': True, 'randaugment_layers': 2, 'randaugment_magnitude': 12}}
Number of devices: 2
Model: "sequential"
_________________________________________________________________
Layer (type)                 Output Shape              Param #   
=================================================================
efficientnetb4 (Functional)  (None, 6, 7, 1792)        17673823  
_________________________________________________________________
global_average_pooling2d (Gl (None, 1792)              0         
_________________________________________________________________
dense (Dense)                (None, 1024)              1836032   
_________________________________________________________________
batch_normalization (BatchNo (None, 1024)              4096      
_________________________________________________________________
dropout (Dropout)            (None, 1024)              0         
_________________________________________________________________
activation (Activation)      (None, 1024)              0         
_________________________________________________________________
dense_1 (Dense)              (None, 1)                 1025      
=================================================================
Total params: 19,514,976
Trainable params: 1,839,105
Non-trainable params: 17,675,871
_________________________________________________________________
True
Model: "sequential"
_________________________________________________________________
Layer (type)                 Output Shape              Param #   
=================================================================
efficientnetb4 (Functional)  (None, 6, 7, 1792)        17673823  
_________________________________________________________________
global_average_pooling2d (Gl (None, 1792)              0         
_________________________________________________________________
dense (Dense)                (None, 1024)              1836032   
_________________________________________________________________
batch_normalization (BatchNo (None, 1024)              4096      
_________________________________________________________________
dropout (Dropout)            (None, 1024)              0         
_________________________________________________________________
activation (Activation)      (None, 1024)              0         
_________________________________________________________________
dense_1 (Dense)              (None, 1)                 1025      
=================================================================
Total params: 19,514,976
Trainable params: 19,387,721
Non-trainable params: 127,255
_________________________________________________________________
Loading weights : F:\Lab\nfs\base-ndiris0405\checkpoints\EfficientNetB4_Notredame_right_aug_gender_finetuned_F50M50.hdf5
Male : 17829, Female: 15853
Male : 1642, Female: 1575
…
pretrained_epoch': 15}, 'input': {'type': 'right', 'image_height': 168, 'image_width': 224, 'channels': 3, 'train_dir': 'F:\\Lab\\datasets\\nd-iris\\data', 'eval_dir': 'F:\\Lab\\datasets\\nd-iris\\data', 'labels': 'F:\\Lab\\datasets\\nd-iris\\\\', 'randaugment': True, 'randaugment_layers': 2, 'randaugment_magnitude': 12}}
Number of devices: 2
Model: "sequential_1"
_________________________________________________________________
Layer (type)                 Output Shape              Param #   
=================================================================
densenet121 (Functional)     (None, 5, 7, 1024)        7037504   
_________________________________________________________________
global_average_pooling2d_1 ( (None, 1024)              0         
_________________________________________________________________
dense_2 (Dense)              (None, 1024)              1049600   
_________________________________________________________________
batch_normalization_1 (Batch (None, 1024)              4096      
_________________________________________________________________
dropout_1 (Dropout)          (None, 1024)              0         
_________________________________________________________________
activation_1 (Activation)    (None, 1024)              0         
_________________________________________________________________
dense_3 (Dense)              (None, 1)                 1025      
=================================================================
Total params: 8,092,225
Trainable params: 1,052,673
Non-trainable params: 7,039,552
_________________________________________________________________
True
Model: "sequential_1"
_________________________________________________________________
Layer (type)                 Output Shape              Param #   
=================================================================
densenet121 (Functional)     (None, 5, 7, 1024)        7037504   
_________________________________________________________________
global_average_pooling2d_1 ( (None, 1024)              0         
_________________________________________________________________
dense_2 (Dense)              (None, 1024)              1049600   
_________________________________________________________________
batch_normalization_1 (Batch (None, 1024)              4096      
_________________________________________________________________
dropout_1 (Dropout)          (None, 1024)              0         
_________________________________________________________________
activation_1 (Activation)    (None, 1024)              0         
_________________________________________________________________
dense_3 (Dense)              (None, 1)                 1025      
=================================================================
Total params: 8,092,225
Trainable params: 8,006,529
Non-trainable params: 85,696
_________________________________________________________________
Loading weights : F:\Lab\nfs\base-ndiris0405\checkpoints\DenseNet121_Notredame_right_aug_gender_finetuned_F50M50.hdf5
Male : 17829, Female: 15853
Male : 1642, Female: 1575
…
pretrained_epoch': 15}, 'input': {'type': 'right', 'image_height': 168, 'image_width': 224, 'channels': 3, 'train_dir': 'F:\\Lab\\datasets\\nd-iris\\data', 'eval_dir': 'F:\\Lab\\datasets\\nd-iris\\data', 'labels': 'F:\\Lab\\datasets\\nd-iris\\\\', 'randaugment': True, 'randaugment_layers': 2, 'randaugment_magnitude': 12}}
Number of devices: 2
Model: "sequential_2"
_________________________________________________________________
Layer (type)                 Output Shape              Param #   
=================================================================
mobilenetv2_1.00_224 (Functi (None, 6, 7, 1280)        2257984   
_________________________________________________________________
global_average_pooling2d_2 ( (None, 1280)              0         
_________________________________________________________________
dense_4 (Dense)              (None, 1024)              1311744   
_________________________________________________________________
batch_normalization_2 (Batch (None, 1024)              4096      
_________________________________________________________________
dropout_2 (Dropout)          (None, 1024)              0         
_________________________________________________________________
activation_2 (Activation)    (None, 1024)              0         
_________________________________________________________________
dense_5 (Dense)              (None, 1)                 1025      
=================================================================
Total params: 3,574,849
Trainable params: 1,314,817
Non-trainable params: 2,260,032
_________________________________________________________________
True
Model: "sequential_2"
_________________________________________________________________
Layer (type)                 Output Shape              Param #   
=================================================================
mobilenetv2_1.00_224 (Functi (None, 6, 7, 1280)        2257984   
_________________________________________________________________
global_average_pooling2d_2 ( (None, 1280)              0         
_________________________________________________________________
dense_4 (Dense)              (None, 1024)              1311744   
_________________________________________________________________
batch_normalization_2 (Batch (None, 1024)              4096      
_________________________________________________________________
dropout_2 (Dropout)          (None, 1024)              0         
_________________________________________________________________
activation_2 (Activation)    (None, 1024)              0         
_________________________________________________________________
dense_5 (Dense)              (None, 1)                 1025      
=================================================================
Total params: 3,574,849
Trainable params: 3,538,689
Non-trainable params: 36,160
_________________________________________________________________
Loading weights : F:\Lab\nfs\base-ndiris0405\checkpoints\MobileNetV2_Notredame_right_aug_gender_finetuned_F50M50.hdf5
Male : 17829, Female: 15853
Male : 1642, Female: 1575
…
pretrained_epoch': 15}, 'input': {'type': 'right', 'image_height': 168, 'image_width': 224, 'channels': 3, 'train_dir': 'F:\\Lab\\datasets\\nd-iris\\data', 'eval_dir': 'F:\\Lab\\datasets\\nd-iris\\data', 'labels': 'F:\\Lab\\datasets\\nd-iris\\\\', 'randaugment': True, 'randaugment_layers': 2, 'randaugment_magnitude': 12}}
Number of devices: 2
Model: "sequential_3"
_________________________________________________________________
Layer (type)                 Output Shape              Param #   
=================================================================
inception_v3 (Functional)    (None, 3, 5, 2048)        21802784  
_________________________________________________________________
global_average_pooling2d_3 ( (None, 2048)              0         
_________________________________________________________________
dense_6 (Dense)              (None, 1024)              2098176   
_________________________________________________________________
batch_normalization_97 (Batc (None, 1024)              4096      
_________________________________________________________________
dropout_3 (Dropout)          (None, 1024)              0         
_________________________________________________________________
activation_97 (Activation)   (None, 1024)              0         
_________________________________________________________________
dense_7 (Dense)              (None, 1)                 1025      
=================================================================
Total params: 23,906,081
Trainable params: 2,101,249
Non-trainable params: 21,804,832
_________________________________________________________________
True
Model: "sequential_3"
_________________________________________________________________
Layer (type)                 Output Shape              Param #   
=================================================================
inception_v3 (Functional)    (None, 3, 5, 2048)        21802784  
_________________________________________________________________
global_average_pooling2d_3 ( (None, 2048)              0         
_________________________________________________________________
dense_6 (Dense)              (None, 1024)              2098176   
_________________________________________________________________
batch_normalization_97 (Batc (None, 1024)              4096      
_________________________________________________________________
dropout_3 (Dropout)          (None, 1024)              0         
_________________________________________________________________
activation_97 (Activation)   (None, 1024)              0         
_________________________________________________________________
dense_7 (Dense)              (None, 1)                 1025      
=================================================================
Total params: 23,906,081
Trainable params: 23,869,601
Non-trainable params: 36,480
_________________________________________________________________
Loading weights : F:\Lab\nfs\base-ndiris0405\checkpoints\InceptionV3_Notredame_right_aug_gender_finetuned_F50M50.hdf5
Male : 17829, Female: 15853
Male : 1642, Female: 1575
…
pretrained_epoch': 15}, 'input': {'type': 'right', 'image_height': 168, 'image_width': 224, 'channels': 3, 'train_dir': 'F:\\Lab\\datasets\\nd-iris\\data', 'eval_dir': 'F:\\Lab\\datasets\\nd-iris\\data', 'labels': 'F:\\Lab\\datasets\\nd-iris\\\\', 'randaugment': True, 'randaugment_layers': 2, 'randaugment_magnitude': 12}}
Number of devices: 2
Model: "sequential_4"
_________________________________________________________________
Layer (type)                 Output Shape              Param #   
=================================================================
inception_resnet_v2 (Functio (None, 3, 5, 1536)        54336736  
_________________________________________________________________
global_average_pooling2d_4 ( (None, 1536)              0         
_________________________________________________________________
dense_8 (Dense)              (None, 1024)              1573888   
_________________________________________________________________
batch_normalization_301 (Bat (None, 1024)              4096      
_________________________________________________________________
dropout_4 (Dropout)          (None, 1024)              0         
_________________________________________________________________
activation_301 (Activation)  (None, 1024)              0         
_________________________________________________________________
dense_9 (Dense)              (None, 1)                 1025      
=================================================================
Total params: 55,915,745
Trainable params: 1,576,961
Non-trainable params: 54,338,784
_________________________________________________________________
True
Model: "sequential_4"
_________________________________________________________________
Layer (type)                 Output Shape              Param #   
=================================================================
inception_resnet_v2 (Functio (None, 3, 5, 1536)        54336736  
_________________________________________________________________
global_average_pooling2d_4 ( (None, 1536)              0         
_________________________________________________________________
dense_8 (Dense)              (None, 1024)              1573888   
_________________________________________________________________
batch_normalization_301 (Bat (None, 1024)              4096      
_________________________________________________________________
dropout_4 (Dropout)          (None, 1024)              0         
_________________________________________________________________
activation_301 (Activation)  (None, 1024)              0         
_________________________________________________________________
dense_9 (Dense)              (None, 1)                 1025      
=================================================================
Total params: 55,915,745
Trainable params: 55,853,153
Non-trainable params: 62,592
_________________________________________________________________
Loading weights : F:\Lab\nfs\base-ndiris0405\checkpoints\InceptionResNetV2_Notredame_right_aug_gender_finetuned_F50M50.hdf5
Male : 17829, Female: 15853
Male : 1642, Female: 1575
…
pretrained_epoch': 15}, 'input': {'type': 'right', 'image_height': 168, 'image_width': 224, 'channels': 3, 'train_dir': 'F:\\Lab\\datasets\\nd-iris\\data', 'eval_dir': 'F:\\Lab\\datasets\\nd-iris\\data', 'labels': 'F:\\Lab\\datasets\\nd-iris\\\\', 'randaugment': True, 'randaugment_layers': 2, 'randaugment_magnitude': 12}}
Number of devices: 2
Model: "sequential_5"
_________________________________________________________________
Layer (type)                 Output Shape              Param #   
=================================================================
resnet50 (Functional)        (None, 6, 7, 2048)        23587712  
_________________________________________________________________
global_average_pooling2d_5 ( (None, 2048)              0         
_________________________________________________________________
dense_10 (Dense)             (None, 1024)              2098176   
_________________________________________________________________
batch_normalization_302 (Bat (None, 1024)              4096      
_________________________________________________________________
dropout_5 (Dropout)          (None, 1024)              0         
_________________________________________________________________
activation_302 (Activation)  (None, 1024)              0         
_________________________________________________________________
dense_11 (Dense)             (None, 1)                 1025      
=================================================================
Total params: 25,691,009
Trainable params: 2,101,249
Non-trainable params: 23,589,760
_________________________________________________________________
True
Model: "sequential_5"
_________________________________________________________________
Layer (type)                 Output Shape              Param #   
=================================================================
resnet50 (Functional)        (None, 6, 7, 2048)        23587712  
_________________________________________________________________
global_average_pooling2d_5 ( (None, 2048)              0         
_________________________________________________________________
dense_10 (Dense)             (None, 1024)              2098176   
_________________________________________________________________
batch_normalization_302 (Bat (None, 1024)              4096      
_________________________________________________________________
dropout_5 (Dropout)          (None, 1024)              0         
_________________________________________________________________
activation_302 (Activation)  (None, 1024)              0         
_________________________________________________________________
dense_11 (Dense)             (None, 1)                 1025      
=================================================================
Total params: 25,691,009
Trainable params: 25,635,841
Non-trainable params: 55,168
_________________________________________________________________
Loading weights : F:\Lab\nfs\base-ndiris0405\checkpoints\ResNet50_Notredame_right_aug_gender_finetuned_F50M50.hdf5
Male : 17829, Female: 15853
Male : 1642, Female: 1575
Male : 0, Female: 1575
…
pretrained_epoch': 15}, 'input': {'type': 'right', 'image_height': 168, 'image_width': 224, 'channels': 3, 'train_dir': 'F:\\Lab\\datasets\\nd-iris\\data', 'eval_dir': 'F:\\Lab\\datasets\\nd-iris\\data', 'labels': 'F:\\Lab\\datasets\\nd-iris\\\\', 'randaugment': True, 'randaugment_layers': 2, 'randaugment_magnitude': 12}}
Number of devices: 2
Model: "sequential_6"
_________________________________________________________________
Layer (type)                 Output Shape              Param #   
=================================================================
vgg19 (Functional)           (None, 5, 7, 512)         20024384  
_________________________________________________________________
global_average_pooling2d_6 ( (None, 512)               0         
_________________________________________________________________
dense_12 (Dense)             (None, 1024)              525312    
_________________________________________________________________
batch_normalization_303 (Bat (None, 1024)              4096      
_________________________________________________________________
dropout_6 (Dropout)          (None, 1024)              0         
_________________________________________________________________
activation_303 (Activation)  (None, 1024)              0         
_________________________________________________________________
dense_13 (Dense)             (None, 1)                 1025      
=================================================================
Total params: 20,554,817
Trainable params: 528,385
Non-trainable params: 20,026,432
_________________________________________________________________
True
Model: "sequential_6"
_________________________________________________________________
Layer (type)                 Output Shape              Param #   
=================================================================
vgg19 (Functional)           (None, 5, 7, 512)         20024384  
_________________________________________________________________
global_average_pooling2d_6 ( (None, 512)               0         
_________________________________________________________________
dense_12 (Dense)             (None, 1024)              525312    
_________________________________________________________________
batch_normalization_303 (Bat (None, 1024)              4096      
_________________________________________________________________
dropout_6 (Dropout)          (None, 1024)              0         
_________________________________________________________________
activation_303 (Activation)  (None, 1024)              0         
_________________________________________________________________
dense_13 (Dense)             (None, 1)                 1025      
=================================================================
Total params: 20,554,817
Trainable params: 20,552,769
Non-trainable params: 2,048
_________________________________________________________________
Loading weights : F:\Lab\nfs\base-ndiris0405\checkpoints\VGG19_Notredame_right_aug_gender_finetuned_F50M50.hdf5
Male : 17829, Female: 15853
Male : 1642, Female: 1575
Male : 0, Female: 1575
…
pretrained_epoch': 15}, 'input': {'type': 'right', 'image_height': 168, 'image_width': 224, 'channels': 3, 'train_dir': 'F:\\Lab\\datasets\\nd-iris\\data', 'eval_dir': 'F:\\Lab\\datasets\\nd-iris\\data', 'labels': 'F:\\Lab\\datasets\\nd-iris\\\\', 'randaugment': True, 'randaugment_layers': 2, 'randaugment_magnitude': 12}}
Number of devices: 2
Model: "sequential_7"
_________________________________________________________________
Layer (type)                 Output Shape              Param #   
=================================================================
xception (Functional)        (None, 6, 7, 2048)        20861480  
_________________________________________________________________
global_average_pooling2d_7 ( (None, 2048)              0         
_________________________________________________________________
dense_14 (Dense)             (None, 1024)              2098176   
_________________________________________________________________
batch_normalization_308 (Bat (None, 1024)              4096      
_________________________________________________________________
dropout_7 (Dropout)          (None, 1024)              0         
_________________________________________________________________
activation_304 (Activation)  (None, 1024)              0         
_________________________________________________________________
dense_15 (Dense)             (None, 1)                 1025      
=================================================================
Total params: 22,964,777
Trainable params: 2,101,249
Non-trainable params: 20,863,528
_________________________________________________________________
True
Model: "sequential_7"
_________________________________________________________________
Layer (type)                 Output Shape              Param #   
=================================================================
xception (Functional)        (None, 6, 7, 2048)        20861480  
_________________________________________________________________
global_average_pooling2d_7 ( (None, 2048)              0         
_________________________________________________________________
dense_14 (Dense)             (None, 1024)              2098176   
_________________________________________________________________
batch_normalization_308 (Bat (None, 1024)              4096      
_________________________________________________________________
dropout_7 (Dropout)          (None, 1024)              0         
_________________________________________________________________
activation_304 (Activation)  (None, 1024)              0         
_________________________________________________________________
dense_15 (Dense)             (None, 1)                 1025      
=================================================================
Total params: 22,964,777
Trainable params: 22,908,201
Non-trainable params: 56,576
_________________________________________________________________
Loading weights : F:\Lab\nfs\base-ndiris0405\checkpoints\Xception_Notredame_right_aug_gender_finetuned_F50M50.hdf5
Male : 17829, Female: 15853
Male : 1642, Female: 1575
Male : 0, Female: 1575
…
pretrained_epoch': 15}, 'input': {'type': 'right', 'image_height': 168, 'image_width': 224, 'channels': 3, 'train_dir': 'F:\\Lab\\datasets\\nd-iris\\data', 'eval_dir': 'F:\\Lab\\datasets\\nd-iris\\data', 'labels': 'F:\\Lab\\datasets\\nd-iris\\\\', 'randaugment': True, 'randaugment_layers': 2, 'randaugment_magnitude': 12}}
Number of devices: 2
Model: "sequential_8"
_________________________________________________________________
Layer (type)                 Output Shape              Param #   
=================================================================
efficientnetb0 (Functional)  (None, 6, 7, 1280)        4049571   
_________________________________________________________________
global_average_pooling2d_8 ( (None, 1280)              0         
_________________________________________________________________
dense_16 (Dense)             (None, 1024)              1311744   
_________________________________________________________________
batch_normalization_309 (Bat (None, 1024)              4096      
_________________________________________________________________
dropout_8 (Dropout)          (None, 1024)              0         
_________________________________________________________________
activation_305 (Activation)  (None, 1024)              0         
_________________________________________________________________
dense_17 (Dense)             (None, 1)                 1025      
=================================================================
Total params: 5,366,436
Trainable params: 1,314,817
Non-trainable params: 4,051,619
_________________________________________________________________
True
Model: "sequential_8"
_________________________________________________________________
Layer (type)                 Output Shape              Param #   
=================================================================
efficientnetb0 (Functional)  (None, 6, 7, 1280)        4049571   
_________________________________________________________________
global_average_pooling2d_8 ( (None, 1280)              0         
_________________________________________________________________
dense_16 (Dense)             (None, 1024)              1311744   
_________________________________________________________________
batch_normalization_309 (Bat (None, 1024)              4096      
_________________________________________________________________
dropout_8 (Dropout)          (None, 1024)              0         
_________________________________________________________________
activation_305 (Activation)  (None, 1024)              0         
_________________________________________________________________
dense_17 (Dense)             (None, 1)                 1025      
=================================================================
Total params: 5,366,436
Trainable params: 5,322,365
Non-trainable params: 44,071
_________________________________________________________________
Loading weights : F:\Lab\nfs\base-ndiris0405\checkpoints\EfficientNetB0_Notredame_right_aug_gender_finetuned_F50M50.hdf5
Male : 17829, Female: 15853
Male : 1642, Female: 1575
…
